checkpoint-500.pth (torch, 75406 bytes, 6 tensors)

fc1.weight f4 [128, 8]
0	0xbb9d9ff6	-0.0048103286
1	0xbe009932	-0.1255844
2	0xbfd7681b	-1.6828645
3	0xbf601513	-0.87532157
4	0xbee8e7cc	-0.45489347
5	0x3cd68f77	0.026191456
6	0xbe0b9ef1	-0.1363485
7	0x3e304eb0	0.17217517
8	0x3e1cf2ea	0.1532704
9	0x3d7dd23b	0.06196807
10	0x3e6a6b1f	0.22892426
11	0xbe72ea78	-0.23722255
12	0xbef8b267	-0.4857361
13	0xbf32d176	-0.6985086
14	0xbf0c156a	-0.54720175
15	0x3e43122b	0.190499
16	0xbe76cd0c	-0.24101657
17	0x3ca86cc3	0.020559674
18	0xbebf85e0	-0.37406826
19	0xbeab2968	-0.33430028
20	0x3dec2a0b	0.115314566
21	0x3ec9c3e5	0.39407268
22	0x3dc0a40b	0.09406289
23	0x3eea09e2	0.45710665
24	0xbe7b805f	-0.24560688
25	0xbe24ecee	-0.16106007
26	0x3f14c919	0.5811935
27	0xbf0f28ec	-0.55921817
28	0xbf68ac9e	-0.9088839
29	0xbe1c3621	-0.15255024
30	0xbdf93d2f	-0.12169873
31	0x3e3a18fb	0.18173592
32	0xbf58fc92	-0.8476039
33	0xbefb32d7	-0.49062225
34	0xbebf9bc6	-0.37423533
35	0xbeeb3681	-0.4594002
36	0xbcc90fbb	-0.024543634
37	0x3b8b9324	0.004259484
38	0x3e4edeb1	0.20202138
39	0x3de3d6d5	0.1112496
40	0x3d4d3ea3	0.050108563
41	0xbf653219	-0.8952957
42	0x3e66c1ab	0.22534816
43	0xbf2f98fc	-0.6859281
44	0xbebfe5cc	-0.3748001
45	0xbe80bc36	-0.25143594
46	0x3e1b9e9a	0.1519722
47	0xbb0f6719	-0.002188152
48	0xbe761670	-0.24031997
49	0xbed46e9c	-0.41490638
50	0x3f0d44d2	0.55183136
51	0x3f161f8e	0.586419
52	0x3e411f56	0.1885961
53	0xbe2f7fee	-0.17138645
54	0x3f034ce7	0.5128922
55	0xbe81b53c	-0.25333583
56	0x3e2462e6	0.16053352
57	0xbf731187	-0.9494862
58	0xbeb0391c	-0.3441857
59	0xbe0fb996	-0.14035639
60	0x3ec0ecc9	0.37680653
61	0x3e3bd7c2	0.18344024
62	0x3dea149d	0.11429713
63	0x3e2e90bb	0.17047398
64	0x3f113abf	0.56730264
65	0x3d34bee9	0.04412738
66	0x3e8ca180	0.27466965
67	0xbe7c2312	-0.24622753
68	0x3e569cb8	0.20958221
69	0x3f2e8aee	0.6818074
70	0xbdf7966e	-0.12089239
71	0xbe71fa4b	-0.23630635
72	0x3f0a79c8	0.54092073
73	0x3e0ea319	0.13929404
74	0x3e4c6419	0.19960059
75	0x3ea66ea0	0.32506275
76	0xbe491bd4	-0.19639522
77	0xbede715a	-0.43445855
78	0x3da79b2d	0.08183894
79	0xbf04a8b9	-0.5181995
80	0xbec9ae36	-0.39390725
81	0x3f269e91	0.65085703
82	0x3f565b8d	0.83733445
83	0xbf0c6650	-0.54843616
84	0x3e3d5d7b	0.18492691
85	0x3d633259	0.055467937
86	0x3d481fa2	0.048858292
87	0x3d3f9dfe	0.046781532
88	0x3ea5c30d	0.32375374
89	0x3d0a8857	0.03382143
90	0x3ed4fb42	0.41597944
91	0xbecd1d12	-0.4006124
92	0x3ed5b8e2	0.41742617
93	0x3f0a1b34	0.5394776
94	0xbe86a2a0	-0.26295948
95	0xbe465dab	-0.19371669
96	0x3edb828f	0.42873046
97	0xbebdc4f7	-0.37064335
98	0xbeb4b517	-0.3529441
99	0xbe6566b4	-0.2240246
100	0x3f15391e	0.5829028
101	0x3efcaa74	0.49348795
102	0xbf0e5066	-0.5559143
103	0x3e79ccc9	0.24394526
104	0xbe47de9e	-0.19518515
105	0x3ee632ce	0.44960636
106	0xbe943e60	-0.28953838
107	0xbf433a1c	-0.7626054
108	0x3e96479f	0.29351518
109	0xbc28b5c6	-0.010297244
110	0xbe7f05c6	-0.24904546
111	0x3ea9501a	0.33068925
112	0xbd5b7d53	-0.053586315
113	0x3f3c4fdd	0.7355936
114	0x3f0627ac	0.52404284
115	0xbf2c64e7	-0.67341465
116	0xbe539aeb	-0.20664565
117	0x3c97a7f5	0.018512705
118	0x3d4f356c	0.050588056
119	0xbba76709	-0.0051087183
120	0x3e96df4e	0.29467243
121	0x3cc1a514	0.023638286
122	0xbd2c81bb	-0.042115908
123	0xbd552b38	-0.05204317
124	0xbe79067e	-0.24318883
125	0xbf2b5bfb	-0.66937226
126	0xbf0816d3	-0.53159827
127	0xbe964a05	-0.29353347
128	0xbf623784	-0.8836596
129	0xbe025117	-0.12726246
130	0xbedb6cd6	-0.42856473
131	0xbe1b84c9	-0.15187372
132	0xbd56668a	-0.052343883
133	0xbdfba3fe	-0.122871384
134	0x3e8dd829	0.2770398
135	0x3d8c43ce	0.0684887
136	0xbec33171	-0.38123658
137	0xbd84ccfa	-0.06484409
138	0xbebe205c	-0.37134063
139	0x3e825c82	0.25461203
140	0x3f2da533	0.678302
141	0x3e6ba3db	0.23011725
142	0x3ebe4782	0.3716393
143	0x3d109bc1	0.03530479
144	0x3d828cfc	0.06374547
145	0x3e518cf7	0.2046393
146	0x3dc7d52d	0.09757457
147	0xbe3279eb	-0.1742932
148	0xbe7b104e	-0.24517938
149	0xbf2f2e07	-0.6842961
150	0xbf263242	-0.6492044
151	0xbd9ef805	-0.0776215
152	0xbeb77f68	-0.3583939
153	0x3f278b1a	0.6544663
154	0x3f468af8	0.775558
155	0xbd9c91b4	-0.07644978
156	0x3f1b029a	0.60550845
157	0xbe5eff91	-0.21777178
158	0x3d9194c5	0.07108454
159	0xbf4f110a	-0.80885375
160	0xbc91af52	-0.017783795
161	0xbe21aab5	-0.15787776
162	0xbfb922bb	-1.4463724
163	0xbf9295a0	-1.1451912
164	0x3d8cd0a1	0.0687573
165	0xbe4432a3	-0.19159941
166	0x3c5bd9c1	0.013418616
167	0xbb63fe9a	-0.0034789206
168	0xbe06933b	-0.13142101
169	0xbe6a434b	-0.22877233
170	0x3f5e1293	0.8674709
171	0xbf265c01	-0.64984137
172	0x3ed85d14	0.42258513
173	0x3e9cd834	0.306337
174	0xbe974d14	-0.29550993
175	0x3eaca2e3	0.33718023
176	0x3cb3717c	0.0219047
177	0xbf2c992e	-0.67421234
178	0x3eb5235a	0.35378534
179	0xbf965393	-1.1744255
180	0x3e0d317c	0.13788408
181	0xbe3d9443	-0.18513589
182	0x3e3f7472	0.18696764
183	0x3c479a21	0.012182743
184	0x3d3a2772	0.045447774
185	0x3bcd2547	0.0062605473
186	0xbeefe2fd	-0.46852866
187	0xbe9e42af	-0.3091025
188	0xbf7b7200	-0.98220825
189	0x3eb3d57b	0.3512381
190	0x3ea39b64	0.3195449
191	0x3edaf3b9	0.4276407
192	0xbf117277	-0.56815284
193	0xbe985696	-0.2975356
194	0xbe9005ab	-0.28129324
195	0xbf150f8d	-0.58226854
196	0xbe826c87	-0.25473425
197	0x3db58c30	0.08864629
198	0xbecc2907	-0.3987505
199	0xbf1d617b	-0.6147687
200	0x3d14ae39	0.036298964
201	0xbcad0dbd	-0.021124715
202	0xbf485c36	-0.782657
203	0xbf824f28	-1.0180407
204	0xbf1bac7d	-0.6081007
205	0x3e864006	0.2622072
206	0xbde7f61d	-0.11326239
207	0x3ec88d4b	0.39170298
208	0x3f1ed893	0.62049216
209	0xbee389ca	-0.44441062
210	0x3ed7e41a	0.42166215
211	0xbf03352e	-0.5125302
212	0x3d26cb13	0.04072101
213	0x3d2293c0	0.039691687
214	0x3e3e6af8	0.18595493
215	0x3d1bc59e	0.03803026
216	0x3bdb7360	0.0066971034
217	0xbf22cd54	-0.63594556
218	0x3e54ce7f	0.20781897
219	0xbf20342e	-0.6257962
220	0x3e271dd1	0.16319968
221	0x3f04e636	0.51913774
222	0x3dfe9d8e	0.12432395
223	0x3df57d83	0.1198683
224	0xbf5a42ae	-0.85257995
225	0x3e8dacd7	0.2767093
226	0xbf218ac5	-0.6310237
227	0x3f236c10	0.63836765
228	0xbd35ec3d	-0.044414748
229	0xbdc5da38	-0.096607625
230	0xbbc06d97	-0.005872439
231	0x3e716584	0.23573881
232	0x3dc17470	0.09446037
233	0x3f04e27f	0.51908106
234	0x3edd0d7d	0.43174353
235	0xbef63c17	-0.4809272
236	0x3e82267f	0.25419995
237	0xbe47f618	-0.19527471
238	0xbd1aa3fe	-0.03775405
239	0xbe0d3775	-0.13790686
240	0x3f30645f	0.68903154
241	0x3e9634f1	0.29337266
242	0xbe06a86e	-0.13150188
243	0x3efc6180	0.49293137
244	0x3f890de3	1.0707363
245	0xbe6ae073	-0.22937183
246	0xbdb69c47	-0.08916526
247	0xbea805a4	-0.32816803
248	0x3e5e1021	0.2168584
249	0xbd3e42e0	-0.046450496
250	0xbe266a27	-0.16251431
251	0xbdb08ed2	-0.08620991
252	0x3fb2b98d	1.3962876
253	0x3dee03af	0.11621796
254	0xbe840ed2	-0.25792557
255	0x3de53c5b	0.111931525

fc1.bias f4 [128]
0	0x3ceb848b	0.028749725
1	0xbe9fdf63	-0.31225118
2	0xbe5c4e3c	-0.21514219
3	0x3cc7a12a	0.024368841
4	0xbe17f328	-0.1483885
5	0x3c76d30b	0.015064965
6	0x3ec13c68	0.377414
7	0x3d07a471	0.033115808
8	0x3da14f98	0.078765094
9	0xbc997771	-0.018733712
10	0x3c713f6b	0.014724593
11	0x3e5b59c2	0.21420959
12	0xbeb68f1d	-0.35656062
13	0x3d792c0a	0.060833015
14	0x3c7b7e74	0.015349973
15	0x3e94db1c	0.29073417
16	0xbda19ece	-0.07891618
17	0x3ea1c7d8	0.3159778
18	0x3cc679c4	0.024227984
19	0xbe8140de	-0.25244802
20	0x3dc54bc1	0.096335895
21	0xbd620a8d	-0.055185843
22	0x3caa1036	0.020759683
23	0xbce39e50	-0.02778545
24	0xbea4eace	-0.32210392
25	0xbb566fee	-0.0032720524
26	0xbeaebde1	-0.3412924
27	0xbeab87c6	-0.33502024
28	0xbbb9de71	-0.005672269
29	0x3f077e0b	0.529267
30	0xbe0c329f	-0.13691185
31	0x3d2c7212	0.042100973
32	0x3e30b715	0.1725734
33	0x3e2b14c5	0.16707142
34	0x3eaa776d	0.3329424
35	0x3e241061	0.16021873
36	0x3e3d6ad0	0.18497777
37	0x3c94dc56	0.01817147
38	0x3d97a021	0.07403589
39	0x3df35fc4	0.118835
40	0xbcab5bb3	-0.020917749
41	0xbe0ae4a9	-0.1356379
42	0xbd7b2a70	-0.06131977
43	0xbd9621ce	-0.073306665
44	0x3eb91818	0.36151195
45	0x3e848c79	0.25888422
46	0x3e9abb88	0.302212
47	0x3d660ff0	0.056167543
48	0x3f22350b	0.6336219
49	0xbe006328	-0.12537825
50	0x3e82fff8	0.25585914
51	0xbe25c0a5	-0.1618677
52	0xbe5aa18a	-0.21350685
53	0xbe48ff68	-0.1962868
54	0x3ef44583	0.47709283
55	0x3e2e8e24	0.1704641
56	0x3e416e5e	0.18889758
57	0xbe9322f7	-0.28737614
58	0xbcb8aee5	-0.022544334
59	0xbc1bef37	-0.0095174825
60	0x3e036fa9	0.12835564
61	0x3e0e22ad	0.13880415
62	0x3e6d010c	0.2314493
63	0xbc3bbccf	-0.01145859
64	0xbd469294	-0.04847963
65	0xbe938849	-0.28814915
66	0x3d5a824f	0.05334693
67	0x3e9b873a	0.30376607
68	0xbdc0d947	-0.09416442
69	0x3a21bbdd	0.00061696564
70	0x3e82fef7	0.25585148
71	0xbce26df6	-0.027640324
72	0x3d731f82	0.05935622
73	0xbe1ec175	-0.15503486
74	0xbd72f49c	-0.05931531
75	0x3d022dbf	0.031781908
76	0x3ba08731	0.0048989286
77	0xbc00a982	-0.007852914
78	0x3e2a75cc	0.16646498
79	0x3eb163dd	0.34646502
80	0xbdcc8c45	-0.09987692
81	0x3e5312b6	0.20612606
82	0xbb2a2ea5	-0.0025967744
83	0x3bb1bd84	0.0054242034
84	0x3d8c3105	0.06845287
85	0x3e282b52	0.16422775
86	0xbe544529	-0.20729508
87	0xbe8d21bc	-0.275648
88	0xbc79ff7e	-0.015258668
89	0x3e095051	0.13409545
90	0xbe8e603e	-0.27807802
91	0x3e5729ac	0.2101199
92	0x3de684d3	0.11255803
93	0x3b300e4d	0.0026863993
94	0x3d91a5ce	0.07111703
95	0x3c174ef1	0.00923513
96	0xbe43cdfa	-0.19121543
97	0xbe870685	-0.26372162
98	0xbe58a659	-0.21157207
99	0xbd80160e	-0.062542066
100	0xbe80e02b	-0.25171027
101	0xbe828a12	-0.25495964
102	0x3e817ca4	0.25290406
103	0xbe0884b9	-0.1333188
104	0x3e224224	0.15845543
105	0x3e02bfdb	0.127685
106	0xbe830222	-0.25587565
107	0x3be8656d	0.007092169
108	0x3e742ade	0.23844478
109	0x3eb8c506	0.36087817
110	0x3e6b7c9e	0.22996756
111	0x3deaece1	0.11470962
112	0x3c804f1c	0.015662722
113	0xbe758f5e	-0.23980471
114	0x3e4e6c57	0.20158516
115	0xbd3e0892	-0.046394892
116	0xbd6bb9f7	-0.057550397
117	0x3da4e39f	0.08051228
118	0xbeae6936	-0.34064645
119	0xbe5cac48	-0.21550095
120	0x3ea94b21	0.3306513
121	0xbeec0a4e	-0.46101612
122	0x3e5fc9dd	0.21854348
123	0xbe31164b	-0.1729366
124	0x3e44971e	0.19198272
125	0xbed701eb	-0.4199365
126	0x3da8f4eb	0.082498394
127	0xbf01e9f7	-0.5074763

fc2.weight f4 [128, 128]
0	0xbf08d476	-0.5344919
1	0x3e60289e	0.21890494
2	0x3e2435fb	0.16036217
3	0xbe3d9c4a	-0.18516651
4	0xbc7af041	-0.01531607
5	0x3ca50f1d	0.020148808
6	0xbeb3f7ee	-0.35150093
7	0xbcf2ca90	-0.029637605
8	0x3e4171f5	0.18891127
9	0x3e3b77db	0.1830744
10	0xbd9a602f	-0.07537877
11	0x3edbeda0	0.4295473
12	0xbd451ecf	-0.048125084
13	0xbd0834de	-0.033253543
14	0x3d9c2a02	0.076252
15	0x3e0ca65c	0.13735336
16	0x3e113272	0.141794
17	0x3e19f13c	0.1503343
18	0x3e61795b	0.2201895
19	0xbee11f8d	-0.43969384
20	0xbe9ac16a	-0.30225688
21	0xbd4db948	-0.050225526
22	0xbe1bf91f	-0.15231751
23	0xbea71e85	-0.32640472
24	0x3eeab315	0.45839754
25	0xbed484de	-0.4150762
26	0x3f144bfc	0.5792844
27	0xbc55b4c1	-0.013043583
28	0x3d56ff30	0.05248946
29	0xbd98e1aa	-0.07464917
30	0xbecc8158	-0.3994243
31	0xbeaa4f68	-0.33263707
32	0xbda78fb0	-0.08181703
33	0x3c702033	0.014656114
34	0x3e015955	0.12631734
35	0x3e890866	0.2676422
36	0x3ec9a5fe	0.39384454
37	0x3ddbd9b5	0.10734884
38	0x3ec9be9b	0.39403233
39	0x3d656a53	0.0560096
40	0x3e5dad49	0.21648134
41	0x3db25801	0.08708192
42	0x3e5deb46	0.21671781
43	0x3ea76e29	0.32701233
44	0xbd176bf7	-0.036968198
45	0x3dfbc90e	0.122942075
46	0x3e32717f	0.17426108
47	0x3edb8bb1	0.42880014
48	0xbd9a5ec7	-0.075376086
49	0x3e98aee9	0.29820946
50	0x3e1cd181	0.15314294
51	0xbe70eaa7	-0.23527013
52	0x3e63e805	0.22256477
53	0x3ea4e1b1	0.3220344
54	0xbde3732a	-0.1110595
55	0xbf351c78	-0.70746565
56	0x3da27caa	0.07933934
57	0xbccd04a3	-0.025026625
58	0xbcd8b948	-0.026455536
59	0xbe95eb36	-0.29281014
60	0x3df22017	0.11822527
61	0xbe0a24e6	-0.13490638
62	0x3bec7434	0.007216001
63	0x3e44834a	0.19190708
64	0x3def6b31	0.11690367
65	0x3e552a5e	0.20816943
66	0x3e55a024	0.2086187
67	0x3df61e2a	0.12017472
68	0xbef4755b	-0.47745785
69	0x3dd2b541	0.10288478
70	0x3d88691f	0.06660675
71	0x3e805e89	0.25072125
72	0x3e8fb92a	0.28070956
73	0x3ece72c4	0.40321934
74	0xbe43dcf2	-0.19127253
75	0x3e77e34f	0.24207805
76	0xbdf7e88c	-0.12104902
77	0x3d8e2b18	0.06941813
78	0x3de9fc68	0.11425096
79	0x3d0a8204	0.0338154
80	0xbdeae8d5	-0.114701904
81	0xbe620933	-0.22073822
82	0xbe7448c2	-0.2385588
83	0xbfa796ba	-1.3092873
84	0x3e00af3e	0.1256685
85	0x3e85c073	0.2612339
86	0x3f2a2ae1	0.6647168
87	0x3f1eb8d0	0.6200075
88	0xbf3eb3e9	-0.7449327
89	0x3dfc9834	0.12333718
90	0x3c036928	0.008020677
91	0xbf3f2515	-0.7466596
92	0xb9e8f1e8	-0.00044430722
93	0xbec8c085	-0.3920938
94	0x3e8be38b	0.2732204
95	0x3e2d9491	0.16951205
96	0x3ebe756c	0.3719896
97	0x3e86dce1	0.26340392
98	0x3e73dbb9	0.23814286
99	0x3e14bf18	0.14526021
100	0x3d936c99	0.07198448
101	0xbcfbe537	-0.030748947
102	0x3e1622d9	0.14661731
103	0x3cb65b8f	0.022260455
104	0xbe960aff	-0.29305264
105	0x3e90a34b	0.28249583
106	0x3eb8069e	0.3594255
107	0x3dd2e281	0.102971084
108	0xbe21493e	-0.15750596
109	0x3df33b52	0.11876549
110	0x3e82eea4	0.25572693
111	0x3eb63338	0.35585952
112	0x3e61975e	0.22030398
113	0x3cdf1340	0.027230859
114	0x3e0e1887	0.13876544
115	0xbf1c525e	-0.6106318
116	0xbd40ba26	-0.047052525
117	0x3b5ab264	0.003337049
118	0xbf2f54b5	-0.6848863
119	0x3eeb6f12	0.45983177
120	0xbd73f7b7	-0.05956241
121	0x3ea3bbd1	0.3197923
122	0xbd1094f2	-0.035298295
123	0x3c9bde00	0.019026756
124	0x3dd28229	0.10278732
125	0xbf010712	-0.50401413
126	0x3d76a1cf	0.060212906
127	0x3ed4fd7a	0.41599637
128	0x3b9e8ebe	0.0048387935
129	0x3e6b73af	0.22993349
130	0x3cc61372	0.024179194
131	0xbd25b55f	-0.040456172
132	0x3e48f2cc	0.1962387
133	0xbde40f55	-0.11135737
134	0xbea5ecf5	-0.32407346
135	0x3e242fb6	0.16033825
136	0xbe53cdb4	-0.20683938
137	0x3d424041	0.04742456
138	0xbe231245	-0.15924938
139	0x3d7417b3	0.059592914
140	0xbcc041ad	-0.023468817
141	0x3eb98cbe	0.3624019
142	0x3d9b3478	0.07578367
143	0x3e4958f6	0.19662842
144	0x3dab77e5	0.083724774
145	0xbd458a08	-0.04822734
146	0x3e8745d7	0.2642047
147	0xbf0ba4bb	-0.54548234
148	0x3e91bf82	0.2846642
149	0xbd784e9b	-0.06062184
150	0xbda7868b	-0.08179959
151	0xbe800bb9	-0.25008944
152	0x3eebd941	0.4606419
153	0xbe139134	-0.1441086
154	0x3f1b11bc	0.60573936
155	0x3e04972f	0.12948297
156	0x3e3b1241	0.18268682
157	0x3cfd6e25	0.03093631
158	0x3ec8c55e	0.3921308
159	0x3dca1a36	0.098682806
160	0x3d131a6f	0.03591388
161	0xbf09a914	-0.5377362
162	0x3ec32a8d	0.381184
163	0x3f152d40	0.5827217
164	0x3e8f3efa	0.27977735
165	0x3de7705f	0.1130073
166	0x3e11a6b7	0.14223753
167	0xbd90670d	-0.070509054
168	0x3de733d3	0.112891816
169	0x3e244a17	0.16043888
170	0x3d8be564	0.06830862
171	0x3f0fbbb8	0.5614581
172	0xbedb8891	-0.4287763
173	0x3dfddfbb	0.12396189
174	0x3e4d0dc2	0.2002478
175	0x3d27331f	0.040820237
176	0xbe6e7c91	-0.23289706
177	0x3eb3cf93	0.35119304
178	0x3cec78fc	0.028866284
179	0xbd4dc159	-0.05023322
180	0x3d0b1c3a	0.033962466
181	0x3f12bf80	0.57323456
182	0x3d296afc	0.041361794
183	0xbeac4db8	-0.33653045
184	0x3b765078	0.0037584584
185	0x3e585809	0.21127333
186	0x3d5986c0	0.053107023
187	0xbe21ed47	-0.1581317
188	0xbcdc57a4	-0.026897259
189	0xbe056bd7	-0.13029419
190	0xbc60bc6c	-0.013716798
191	0x3e37dae1	0.1795459
192	0xbd31a45e	-0.043369643
193	0x3d956ddf	0.07296347
194	0x3e118a44	0.142129
195	0xbd860842	-0.06544544
196	0xbf16ad67	-0.5885834
197	0x3d336231	0.043794814
198	0xbdb84952	-0.0899836
199	0x3e35c162	0.17749551
200	0x3e93a97e	0.2884025
201	0x3ec82cb7	0.39096615
202	0xbed9750b	-0.4247211
203	0x3dc97d1e	0.09838317
204	0x3c0eab11	0.008707778
205	0xbe6c6cac	-0.2308833
206	0xbd144bfc	-0.036205277
207	0xbb22d655	-0.002484699
208	0xbe6c2f50	-0.23064923
209	0x3d9f021f	0.077640764
210	0xbe8fdcd1	-0.28098157
211	0xbfe126f4	-1.7590013
212	0xbd5a55fb	-0.053304654
213	0x3dc31b91	0.09526742
214	0xbe0fbb77	-0.14036356
215	0x3f03ae1f	0.5143756
216	0xbf2d2b46	-0.67644155
217	0x3e18cb93	0.14921407
218	0x3e00d85c	0.12582535
219	0xbf19d714	-0.6009381
220	0xbddef3bf	-0.10886335
221	0xbe8e8ade	-0.27840322
222	0xbd91d73f	-0.07121133
223	0x3e012c77	0.12614618
224	0x3e4da2d0	0.2008164
225	0x3ea7ba4d	0.32759324
226	0x3eab5839	0.33465746
227	0xbd8e1654	-0.069378525
228	0x3e1362bc	0.14393133
229	0xbde82db4	-0.11336842
230	0x3de717ef	0.11283862
231	0x3d81394c	0.06309757
232	0x3d1ee06c	0.038788244
233	0x3f20e02a	0.6284205
234	0x3e4eef30	0.2020843
235	0xbe44b358	-0.19209039
236	0xbe2485d3	-0.16066675
237	0xbd24d8f1	-0.040245954
238	0x3ee52363	0.4475356
239	0x3c83d335	0.016091922
240	0x3ce1b41e	0.027551707
241	0x39d226b9	0.00040083172
242	0x3e052309	0.13001646
243	0xbe9ebb6e	-0.31002373
244	0xbd83ce6b	-0.064358555
245	0xbd928046	-0.071533725
246	0x3dc8fc93	0.098138
247	0x3de8f80b	0.113754354
248	0xbd8000f4	-0.06250182
249	0xbdcd97c2	-0.10038711
250	0x3e82ec67	0.25570986
251	0x3e088691	0.13332583
252	0xbdb3035e	-0.087408766
253	0xbe5019d5	-0.20322354
254	0xbccaa2cd	-0.024735833
255	0x3b55d541	0.003262833

fc2.bias f4 [128]
0	0xbdd40d4f	-0.10354101
1	0xbd6071e2	-0.054796107
2	0x3bfb4973	0.007668668
3	0xbd64d448	-0.05586651
4	0xbd89bf6c	-0.06725964
5	0x3e904719	0.28179243
6	0xbe58c474	-0.21168691
7	0x3c5ae253	0.013359624
8	0x3e5b38c1	0.21408369
9	0x3b8c9fa2	0.0042914907
10	0xbe7de489	-0.2479421
11	0x3d8c50bd	0.06851337
12	0x3c2d7ae8	0.010588385
13	0xbdebc96d	-0.11513028
14	0xbd4fdcf6	-0.050747834
15	0x3ec18eeb	0.3780435
16	0x3c1d6edd	0.009608951
17	0x3d5bc898	0.053658098
18	0x3d8c1c77	0.06841367
19	0x3e5c278e	0.21499464
20	0x3e25891d	0.16165586
21	0xbd2541b0	-0.040345848
22	0x3dbaf8bc	0.091294736
23	0xbc9da449	-0.019243376
24	0x3e95469f	0.29155442
25	0x3daa61e7	0.08319455
26	0xbce4fc6d	-0.027952397
27	0x3dcd7c75	0.10033504
28	0xbcb9fde2	-0.022704069
29	0x3ea08096	0.31348103
30	0x3e6e1729	0.23251022
31	0xbda8b2d3	-0.08237233
32	0x3e0bc815	0.13650544
33	0xbd1aae9a	-0.03776417
34	0xbcb5aad7	-0.02217619
35	0x3d3a6332	0.045504756
36	0xbd1ab9a3	-0.037774693
37	0x3debaa83	0.11507132
38	0x3c24d357	0.010060153
39	0xbdc4e094	-0.096131474
40	0xbdd87e3f	-0.105709545
41	0x3b4336b5	0.0029787247
42	0xbd839b6d	-0.064261295
43	0xbc0a9e5f	-0.00846061
44	0xbdcff126	-0.10153417
45	0xbdc1e75a	-0.09467955
46	0x3efb6ae6	0.49104995
47	0x3d5b032e	0.05346983
48	0xbd904ced	-0.070459224
49	0xbd34cb0e	-0.04413896
50	0x3db58b83	0.088645004
51	0xbdde3999	-0.1085083
52	0x3d834455	0.06409518
53	0xbd612492	-0.054966517
54	0x3d5f1d27	0.05447116
55	0x3c686e6c	0.014186483
56	0x3e75c67f	0.24001502
57	0xbd7c4b64	-0.061595336
58	0xbdf86272	-0.12128152
59	0xbc3649cf	-0.011125996
60	0xbde7f1e2	-0.11325432
61	0x3cf9bc86	0.030485403
62	0xbd901ddd	-0.07036946
63	0xbe915c6f	-0.28390834
64	0xbd0ae5c1	-0.033910517
65	0xbcd2f6b6	-0.025752407
66	0x3e1718d9	0.14755572
67	0xbe1fda53	-0.15610628
68	0xbd800db5	-0.062526144
69	0x3eabbc73	0.33542213
70	0x3d2e3ebc	0.042540297
71	0xbb5f529b	-0.0034076336
72	0xbd9f0f87	-0.077666335
73	0xbdb5d5a5	-0.0887864
74	0xbc0d153b	-0.008611019
75	0x3d073819	0.033012483
76	0xbe036fc2	-0.12835601
77	0xbc2a632e	-0.010399623
78	0x3e94f718	0.29094768
79	0xbcbf7706	-0.023372184
80	0xbdcf4ed2	-0.10122456
81	0x3d90fe55	0.0707976
82	0xbcdbf91e	-0.026852187
83	0xbca438dc	-0.020046644
84	0xbe2f16bc	-0.17098516
85	0x3d53bb84	0.0516925
86	0x3d84c23c	0.0648236
87	0x3e3c5a35	0.18393786
88	0xbdd5487b	-0.10414215
89	0xbca379b1	-0.019955488
90	0x3e075ad1	0.13218237
91	0x3cec321e	0.028832491
92	0x3e330227	0.1748129
93	0xbe1448c0	-0.14480877
94	0xbcbd5f52	-0.023116741
95	0xbe45ec6c	-0.19328469
96	0x3c90e270	0.017686099
97	0xbce6f9e0	-0.028195322
98	0x3d58f095	0.052963812
99	0xbe31ef58	-0.17376459
100	0x3ba8c95d	0.0051509575
101	0x3cd92542	0.026507024
102	0xbcb24306	-0.021760475
103	0xbc8fe8cc	-0.01756706
104	0xbe4cac65	-0.19987638
105	0x3eb95176	0.36194962
106	0x3e9c51d9	0.30531195
107	0xbde125d8	-0.10993546
108	0x3dc10144	0.094240695
109	0xbd4b78ee	-0.049675874
110	0x3e1afdd5	0.15135892
111	0x3bdf6ca0	0.006818369
112	0x3e43107e	0.1904926
113	0xbdd0d32b	-0.10196527
114	0xbd0124b6	-0.03152915
115	0x3c7e8605	0.015534882
116	0x3d8c185f	0.06840586
117	0xbde7612f	-0.11297833
118	0xbcac002a	-0.020996172
119	0x3d1d31c2	0.03837753
120	0xbb8d6d2b	-0.0043159924
121	0x3dc95aa1	0.09831739
122	0x3e94e7ba	0.29083043
123	0xbc27fb39	-0.010252767
124	0xbe574ce3	-0.21025424
125	0x3d0dec95	0.03464945
126	0x3ef8c339	0.48586443
127	0xbdd02d69	-0.10164911

fc3.weight f4 [4, 128]
0	0xbe4fd806	-0.2029725
1	0xbe312a85	-0.17301376
2	0x3d021f07	0.03176787
3	0xbe6af73b	-0.22945873
4	0xbe9aaf70	-0.30211973
5	0x3f31846f	0.693427
6	0x3eaa3c88	0.33249307
7	0xbb4b7e22	-0.0031050523
8	0x3ebd0a17	0.3692176
9	0xbe99a26d	-0.30006734
10	0xbd2d2dc7	-0.042279985
11	0xbc19ba23	-0.009382757
12	0x3d904b50	0.07045615
13	0xbe49e969	-0.19717945
14	0xbdd0bd6e	-0.10192381
15	0x3e10804a	0.14111438
16	0xbe940327	-0.28908655
17	0xbe34a427	-0.17640744
18	0x3a0675f5	0.00051292713
19	0x3f73fbd6	0.95306146
20	0x3fa401b8	1.2813025
21	0xbe98fa58	-0.29878497
22	0x3f5ec3e0	0.8701763
23	0x3d4c4204	0.049867645
24	0x3fd19580	1.6373749
25	0xbedcbe6d	-0.43114033
26	0xbe7c1fd7	-0.24621521
27	0xbf084965	-0.5323699
28	0x3d0ef2a9	0.034899388
29	0x3f956706	1.1672065
30	0x3fcf1c20	1.6180458
31	0xbe9c07ae	-0.3047461
32	0x3e0c0471	0.1367357
33	0xbe829285	-0.2550241
34	0xbf3a1c42	-0.7269937
35	0xbdf75314	-0.12076393
36	0xbe85dd0f	-0.26145217
37	0xbdd6623e	-0.10467957
38	0xbeae5842	-0.3405171
39	0xbd315510	-0.043294013
40	0x3d91abf0	0.071128726
41	0xbe196729	-0.14980759
42	0xbe904c94	-0.28183424
43	0xbe57837f	-0.21046256
44	0x3c267603	0.010159972
45	0x3efb049a	0.49026948
46	0x3f60df6e	0.87840927
47	0xbdc0e4ff	-0.094186775
48	0xbe56f2cb	-0.20991056
49	0xbe9bcd31	-0.30429986
50	0xbee9ab3c	-0.45638454
51	0xbf286dd7	-0.657926
52	0x3f1def38	0.61693144
53	0xbe444678	-0.19167507
54	0xbe919f10	-0.28441668
55	0xbe053540	-0.13008595
56	0x3f892b19	1.0716277
57	0xbe4abbdc	-0.19798225
58	0x3cb0e127	0.021591736
59	0xbe9a27c3	-0.3010846
60	0xbe454250	-0.19263577
61	0xbe4def23	-0.20110755
62	0x3da86901	0.08223153
63	0x3ed97fcd	0.42480317
64	0xbe79ad8a	-0.24382606
65	0xbe9603d5	-0.292998
66	0x3f839869	1.0280887
67	0xbdab44e7	-0.083627515
68	0xbd22137f	-0.039569374
69	0xbe2718b1	-0.16318013
70	0xbe4d8211	-0.20069148
71	0x3d8943e2	0.06702401
72	0xbe775a25	-0.24155481
73	0xbe864c0f	-0.26229903
74	0xbf0d5aa4	-0.5521643
75	0x3d1d0fc7	0.038345125
76	0xbe7a5324	-0.24445778
77	0xbe55f2e2	-0.20893434
78	0x3f755a63	0.95841044
79	0xbef4a3e7	-0.47781298
80	0x3d2bb463	0.041920077
81	0xbf0403ce	-0.51568305
82	0xbe6a9f70	-0.22912383
83	0xbe990a9f	-0.29890916
84	0xbe618f80	-0.22027397
85	0x3d9b1b51	0.075735696
86	0xbdf981da	-0.1218297
87	0x3e23febe	0.16015145
88	0xbea2fefe	-0.3183517
89	0xbe92354b	-0.28556284
90	0x3dea0211	0.114261754
91	0x3e00b5ce	0.12569353
92	0x3f784089	0.9697347
93	0xbe0c5e71	-0.13707902
94	0xbe3c506b	-0.18390052
95	0x3e8493fa	0.25894147
96	0xbe92ae18	-0.28648448
97	0xbe9b62df	-0.3034887
98	0xbeb8cb56	-0.36092633
99	0xbe6ee10e	-0.23328039
100	0xbf8b3601	-1.0875856
101	0xbed1b3d1	-0.40957502
102	0xbe82bdc9	-0.2553542
103	0x3d879e8b	0.066220365
104	0xbea07870	-0.31341887
105	0x3f750e53	0.9572498
106	0x3f9b2814	1.2121606
107	0xbe17e9af	-0.14835237
108	0x3eb8257c	0.35966098
109	0xbe4e4c7e	-0.20146367
110	0xbf1c580c	-0.6107185
111	0xbe443e2d	-0.19164343
112	0x3ecbcb0b	0.39803347
113	0xbe93c2a9	-0.2885945
114	0xbe74e675	-0.23916037
115	0x3d5e5c59	0.05428729
116	0xbed0ada7	-0.40757486
117	0xbe66375d	-0.22482057
118	0xbea93207	-0.3304598
119	0x3cecab0a	0.028890152
120	0xbe64ea63	-0.22355036
121	0xbe63d402	-0.22248843
122	0xbd1aa78e	-0.03775745
123	0xbf180705	-0.5938571
124	0x3d6cf2cd	0.05784874
125	0x3ec65238	0.38734603
126	0xbf2f822e	-0.68558013
127	0x3df93a0b	0.12169274
128	0xbebb3fdb	-0.36572155
129	0xbe296977	-0.16544138
130	0xbcbeed6e	-0.023306575
131	0xbe923937	-0.28559276
132	0xbe86bf82	-0.26317984
133	0x3f32714a	0.69704115
134	0x3e9e6f85	0.30944458
135	0x3d59674b	0.053077023
136	0x3f3816b4	0.7190964
137	0xbe538679	-0.20656766
138	0x3f1b6428	0.606997
139	0x3ce37b43	0.027768737
140	0x3d8a3c47	0.06749778
141	0xbe7d90ff	-0.24762343
142	0xbeb78d90	-0.3585019
143	0x3eea282a	0.45733768
144	0xbe5ea07a	-0.21740904
145	0xbe67873c	-0.22610182
146	0x3d0d4448	0.034488946
147	0x3f31cf47	0.69456905
148	0x3fb776df	1.4333152
149	0xbea9796f	-0.3310046
150	0x3f538f6d	0.82640725
151	0x3cdbe5a5	0.026842901
152	0x3fcd716d	1.605024
153	0xbec5a849	-0.38604954
154	0xbeb9e7a4	-0.3630954
155	0xbf06fd80	-0.5273056
156	0x3d6cc47b	0.057804566
157	0x3f9d47b4	1.2287507
158	0x3fb7461a	1.4318268
159	0xbe711dec	-0.2354657
160	0x3eed69a3	0.46369657
161	0xbe98423a	-0.29738027
162	0xbf12b1cb	-0.5730254
163	0xbe320fdb	-0.17388861
164	0xbe963b88	-0.29342294
165	0xbee3bce3	-0.44480047
166	0x3e857976	0.2606923
167	0xbc4e895d	-0.012605992
168	0xbc48b8f9	-0.012251132
169	0xbe0e5149	-0.13898195
170	0xbe6b7fcf	-0.22997974
171	0xbe3fd1d9	-0.18732394
172	0x3bd28e8e	0.0064256852
173	0x3f0c506c	0.54810214
174	0x3f6b4ade	0.91911113
175	0x3b8017fb	0.0039091087
176	0xbe870155	-0.26368204
177	0xbe9da0ec	-0.30786836
178	0xbe942583	-0.2893487
179	0xbe083e3f	-0.13304995
180	0xbea39e65	-0.31956783
181	0xbe392b09	-0.18082823
182	0xbe46d417	-0.19416843
183	0xbeb42b9b	-0.35189518
184	0x3f3f3ccc	0.74702144
185	0xbea0c7ff	-0.31402585
186	0x3c33f8f0	0.010984644
187	0xbebc2f8f	-0.36755034
188	0xbe9a27ff	-0.3010864
189	0xbe795ebc	-0.24352545
190	0x3d79f7be	0.06102728
191	0xbe1370f6	-0.1439856
192	0xbe2af7ed	-0.16696139
193	0xbea14d93	-0.31504497
194	0x3f532345	0.8247569
195	0xbdf68266	-0.1203659
196	0x3d856db9	0.065150686
197	0xbe93cf11	-0.28868917
198	0xbebaaea6	-0.3646137
199	0x3c25c1d2	0.010117011
200	0xbe547c39	-0.20750512
201	0xbe4ee854	-0.20205814
202	0xbf1ba4e1	-0.6079846
203	0x3d7c4b4a	0.06159524
204	0xbe9f4e4f	-0.31114432
205	0xbed10420	-0.4082346
206	0x3f701aa6	0.9379066
207	0xbef037d8	-0.46917605
208	0x3d929888	0.07157999
209	0xbe7966c5	-0.2435561
210	0xbe3d62d2	-0.18494728
211	0xbe7e6781	-0.24844171
212	0xbdfa5961	-0.12224079
213	0x3f219ba9	0.63128144
214	0xbe3c3d41	-0.18382742
215	0xbb0cf9da	-0.0021511228
216	0xbe843bb6	-0.25826806
217	0xbe8c056d	-0.2734789
218	0x3e16eabe	0.14737985
219	0x3b00eab4	0.0019671144
220	0x3f925712	1.1432822
221	0xbea02552	-0.31278473
222	0xbe8975e9	-0.2684777
223	0x3e106ef8	0.14104831
224	0xbe249006	-0.16070566
225	0xbe6eb71d	-0.2331204
226	0xbee53e4a	-0.44774085
227	0xbec9fd75	-0.39451185
228	0xbf191bad	-0.59807855
229	0xbeefb1e2	-0.468154
230	0xbe6663a9	-0.22498955
231	0x3d855bae	0.06511627
232	0xbebc80aa	-0.36816913
233	0x3f867867	1.0505494
234	0x3f5e9cd6	0.8695806
235	0xbedf04d8	-0.43558383
236	0x3f23c33a	0.6396977
237	0xbe89fecf	-0.26952216
238	0xbebc6a73	-0.36799964
239	0xbe6fc9aa	-0.23416772
240	0x3f0d0fcd	0.55102235
241	0xbeb11229	-0.34584168
242	0xbe8d3a95	-0.27583757
243	0xbcafa20a	-0.021439571
244	0xbeb436b9	-0.35198
245	0xbe79533c	-0.24348158
246	0xbe31561d	-0.17318006
247	0xbd823627	-0.06357985
248	0xbecc80ca	-0.39942008
249	0xbe5be503	-0.2147408
250	0xbee1ab80	-0.44076157
251	0xbe92a76a	-0.28643352
252	0xbefc08f6	-0.49225587
253	0xbe6a8c4e	-0.22905084
254	0xbf1b6a9e	-0.6070956
255	0x3e3ddcc1	0.18541242

fc3.bias f4 [4]
0	0x3d4a2a60	0.04935682
1	0xbd8db41e	-0.0691912
2	0x3d80e817	0.062942676
3	0xbd8d4b43	-0.06899121
