checkpoints/checkpoint-500.pth (torch, 75406 bytes, 6 tensors)

fc1.weight f4 [128, 8]
0.2694347 0.10225212 -1.0054469 -0.87747127 0.1612339 0.19864848 -0.107897975 0.16237961
0.24513981 0.16763625 0.21818271 -0.23975754 -0.7711358 -0.9569693 -0.57452154 0.4559546
0.05776818 0.3708569 0.049866904 -0.12955189 0.59617597 0.724247 0.05365431 0.37999797
-0.43193287 0.34799454 1.7363797 -0.92545813 -0.37715846 -0.077336885 -0.11746831 0.29447445
-0.35499278 -1.1914266 -0.20898911 -0.5476728 -0.539041 0.54559696 0.4812173 0.16184638
-0.15552713 -2.34491 0.5817905 -0.6538607 -0.37272292 0.17930618 0.11905014 -0.028555568
0.16183642 -1.3270485 0.76503944 1.1993495 0.34698242 -0.7050778 0.567121 0.08239924
0.09361228 -2.0481074 0.12316057 -0.6655065 -0.026861591 0.067715436 0.18794818 0.1627938
0.06867144 -0.24355912 0.15680358 -0.261312 0.5841081 0.33223146 -0.69183743 0.21171772
0.0020912318 0.37762684 0.45112902 1.1364995 -0.37436837 -0.69809115 -0.039198894 0.01350856
-0.54507786 0.7544772 0.19316262 -0.60047895 0.045423828 0.67405236 0.29568338 -0.4499342
0.013231288 -2.8045547 0.5065887 -0.15811023 0.15741874 0.44567475 -1.0629369 -0.46512273
0.7543212 -0.022311484 -0.36717293 -0.19300678 1.2749591 0.6150115 -1.0314472 -0.27441055
-0.4504641 -0.6950363 -0.36469138 -0.7886011 0.3224395 0.1639459 -0.136322 0.35145807
-0.20475875 0.32826886 -0.19566655 -0.24452358 0.76480615 0.24152897 0.16788056 0.58837706
0.52697927 0.3064478 -0.1795504 -0.12467457 -0.5332779 0.06552791 -0.06432017 -0.28649554
-0.5967649 -1.5042714 -1.1579273 -0.5986375 0.3909393 -0.077672645 0.10043554 0.07954689
0.15558231 -0.045542907 0.30603892 -0.012031818 1.1580714 0.9172295 0.6162229 0.048386883
-0.38688353 -0.9045832 0.30501133 -0.43053976 -0.44195926 -0.38256487 -0.6618153 -0.17015977
-0.046469465 -0.11112424 0.795109 -1.4455143 0.18239814 -0.14176446 0.032288186 0.07625115
-0.01688596 -0.100288115 -0.87639207 -1.3400521 0.16905345 0.3485612 0.09691169 0.13935412
-0.35985282 -1.133971 0.1887736 -0.9214758 0.54974955 0.640508 -0.34082016 0.03205418
-0.12749502 -0.45556054 0.6756814 -0.60206556 0.041507628 0.3981466 0.29572827 -0.22805212
0.5501236 -0.46261978 0.053825404 0.011503732 -0.6295982 0.13664858 0.41878536 0.37394118
-0.54984766 -1.4501909 -0.8331544 -0.6785272 -0.23179485 -0.08206512 -0.34452677 -0.14396612
-0.020739798 -0.12320138 -0.95301193 -0.86007935 -1.4073881 0.38271752 0.0020212007 0.039659955
0.65780646 -0.5962441 0.09422254 -0.40653604 0.11537848 0.21625331 0.12247057 0.1785723
-0.34729034 -0.9367364 0.5570776 -0.63894415 0.16463165 0.25946954 0.19934423 0.36727023
-0.22711325 -0.084909275 -0.97284126 -0.5337067 -0.6019963 -0.012047487 -0.15832198 0.10165078
-0.14121304 0.5712033 0.544003 -0.5683017 0.11849944 -0.99733615 -0.60808766 0.29551154
-0.48266616 0.74399096 -0.37462506 -0.25477841 -0.2896535 -0.5322698 0.44575015 -1.0925508
-0.051316418 0.028610736 0.11233002 0.31893146 1.4067707 0.22564934 -0.08315756 -0.55050355
00000000: 58f3 893e 8f69 d13d 7cb2 80bf f5a1 60bf
00000010: 801a 253e 826a 4b3e 9df9 dcbd d746 263e
00000020: ee05 7b3e d6a8 2b3e 4a6b 5f3e 0083 75be
00000030: 2869 45bf f1fb 74bf d813 13bf e272 e93e
00000040: 549e 6c3d f5e0 bd3e 3d41 4c3d 40a9 04be
00000050: fd9e 183f 4068 393f 9fc4 5b3d 188f c23e
00000060: 4e26 ddbe 572c b23e b141 de3f d3ea 6cbf
00000070: ea1a c1be cd62 9ebd 3a93 f0bd 5bc5 963e
00000080: 9dc1 b5be ab80 98bf 3e01 56be 4934 0cbf
00000090: 97fe 09bf 3eac 0b3f 1d62 f63e 0fbb 253e
000000a0: 8142 1fbe 0113 16c0 39f0 143f 6a63 27bf
000000b0: 8ad5 bebe 0a9c 373e 8fd0 f33d 5eed e9bc
000000c0: 72b8 253e badc a9bf a0d9 433f 4984 993f
000000d0: aea7 b13e fb7f 34bf d82e 113f efc0 a83d
000000e0: ccb7 bf3d 3114 03c0 9c3b fc3d a25e 2abf
000000f0: d70c dcbc 64ae 8a3d 7d75 403e 6bb3 263e
00000100: 9da3 8c3d 9067 79be 1e91 203e b0ca 85be
00000110: 1c88 153f 3e1a aa3e 421c 31bf 88cc 583e
00000120: 0c0d 093b 4e58 c13e 62fa e63e d178 913f
00000130: 36ad bfbe 1ab6 32bf 058f 20bd 0253 5d3c
00000140: 398a 0bbf 6b25 413f 6ccc 453e fdb8 19bf
00000150: 560e 3a3d b28e 2c3f d063 973e c75d e6be
00000160: 0bc8 583c d37d 33c0 ccaf 013f a6e7 21be
00000170: 6132 213e 7b2f e43e 510e 88bf 9124 eebe
00000180: 321b 413f 93c6 b6bc 17fe bbbe 92a3 45be
00000190: dc31 a33f 6571 1d3f 7606 84bf 8a7f 8cbe
000001a0: 3ba3 e6be e6ed 31bf d4b8 babe c3e1 49bf
000001b0: ca16 a53e 6fe1 273e ff97 0bbe 50f2 b33e
000001c0: 47ac 51be db12 a83e d05c 48be 6464 7abe
000001d0: 56ca 433f 5f53 773e e2e8 2b3e e19f 163f
000001e0: 1de8 063f bae6 9c3e 0fdc 37be 6255 ffbd
000001f0: e784 08bf 7f33 863d 4bba 83bd 8baf 92be
00000200: 96c5 18bf f78b c0bf f636 94bf 4f40 19bf
00000210: 3229 c83e d612 9fbd 26b1 cd3d 7be9 a23d
00000220: f850 1f3e 338b 3abd 22b1 9c3e 1a21 45bc
00000230: af3b 943f 8dcf 6a3f c9c0 1d3f 5331 463d
00000240: 9915 c6be c492 67bf 722a 9c3e b56f dcbe
00000250: 7c48 e2be 8bdf c3be ba6c 29bf 5d3e 2ebe
00000260: c456 3ebd 1b95 e3bd 438c 4b3f 9d06 b9bf
00000270: 94c6 3a3e b42a 11be 9e40 043d 9029 9c3d
00000280: 6d54 8abc db63 cdbd 3b5b 60bf d486 abbf
00000290: 591c 2d3e 9d76 b23e a379 c63d d9b2 0e3e
000002a0: a13e b8be f625 91bf de4d 413e d7e5 6bbf
000002b0: 63bc 0c3f 55f8 233f fb7f aebe 3e4b 033d
000002c0: 0e8e 02be 3b3f e9be 75f9 2c3f f820 1abf
000002d0: e703 2a3d dfd9 cb3e b269 973e 7f86 69be
000002e0: e6d4 0c3f 80dc ecbe 0778 5c3d 267a 3c3c
000002f0: 592d 21bf 9bed 0b3e 096b d63e 3875 bf3e
00000300: d1c2 0cbf db9f b9bf 9b49 55bf f5b3 2dbf
00000310: a15b 6dbe c211 a8bd d065 b0be db6b 13be
00000320: 82e6 a9bc 0151 fcbd 97f8 73bf 292e 5cbf
00000330: 4b25 b4bf 8df3 c33e 1f76 043b 7a72 223d
00000340: 0166 283f 74a3 18bf bff7 c03d 7e25 d0be
00000350: 8d4b ec3d 8271 5d3e dad1 fa3d a8db 363e
00000360: 0ad0 b1be f5cd 6fbf a39c 0e3f d891 23bf
00000370: 3395 283e 31d9 843e e520 4c3e d80a bc3e
00000380: 6090 68be eae4 adbd 200c 79bf 01a1 08bf
00000390: 6e1c 1abf d362 45bc 281f 22be 492e d03d
000003a0: 279a 10be 613a 123f c843 0b3f 387c 11bf
000003b0: d6af f23d 6c51 7fbf a2ab 1bbf 4a4d 973e
000003c0: 0520 f7be 3176 3e3f dbce bfbe 5172 82be
000003d0: 774d 94be d542 08bf 5d39 e43e b4d8 8bbf
000003e0: 2a31 52bd 1061 ea3c 480d e63d fc4a a33e
000003f0: 1011 b43f 9f10 673e 834e aabd cded 0cbf

fc1.bias f4 [128]
-0.12554933 0.016353834 -0.6160859 -0.055038977 -0.3407968 0.06779959 0.21819489 -0.2675075
-0.7779972 0.17854492 0.19617815 0.1631794 -0.3677502 -0.52619517 -0.7188471 0.7111217
-0.18884017 0.023782473 0.33879822 0.023426065 0.015244543 -0.080255665 -0.5302704 -0.39984542
-0.3791441 0.07390289 -0.36966693 -0.6089804 0.100647956 0.09290245 0.103787705 0.05303451
0.12353327 0.38987404 0.26303494 -0.23844336 -0.7684621 0.0040422035 0.052074343 0.26281482
-0.53294927 -0.16005982 -0.25457272 -0.05647905 0.5640794 0.26887792 0.21727432 -0.0038063645
0.58929217 -0.42876947 0.16258386 -0.5829733 -0.091565184 -0.12700678 0.37078986 0.24081084
0.015362039 -0.75839424 -0.16396701 -0.08712819 0.05877086 -0.33454707 -0.32406735 -0.10114046
-0.41146335 -0.35921612 0.09837416 0.075916044 -0.50318134 -0.36029422 -0.2847869 -0.03963955
0.16627432 -0.8827179 -0.28574958 0.44243807 -0.20129566 0.21075612 0.052736253 0.13190432
-0.11299849 0.48076203 0.24932638 -0.015591046 0.009858303 0.34910148 0.031912096 -0.37532386
-0.305882 -0.5011571 -0.21539399 0.25321987 -0.31532124 0.17746189 -0.18394347 -0.18287873
-0.144748 -0.36903054 -0.39924452 0.12635092 -0.48003152 -0.21727604 -0.1977489 -0.636741
-0.11494765 0.32499897 0.16854389 -0.32079473 -0.1552132 0.32921994 -0.10194814 0.13214087
-0.0033361546 -0.5885854 0.21326119 -0.13633528 0.033290975 -0.34634957 -0.2905535 -0.41997573
-0.0847957 -0.5924647 0.75856483 -0.49989307 -0.24158259 -0.054167397 -0.36375076 -0.015005696
00000000: 0190 00be 7af8 853c ceb7 1dbf 8d70 61bd
00000010: eb7c aebe 83da 8a3d 7b6e 5f3e bef6 88be
00000020: d32a 47bf 7bd4 363e ede2 483e 8018 273e
00000030: c149 bcbe bab4 06bf 5d06 38bf 120c 363f
00000040: 515f 41be 76d3 c23c f676 ad3e 05e8 bf3c
00000050: 3fc4 793c 155d a4bd cdbf 07bf 8ab8 ccbe
00000060: 2d1f c2be 665a 973d fc44 bdbe 24e6 1bbf
00000070: 8420 ce3d a443 be3d a68e d43d b73a 593d
00000080: 03ff fc3d 929d c73e 84ac 863e 7f2a 74be
00000090: efb9 44bf 7674 843b e84b 553d aa8f 863e
000000a0: 5d6f 08bf b9e6 23be 5b57 82be 9456 67bd
000000b0: 8267 103f 5eaa 893e 297d 5e3e 3374 79bb
000000c0: dadb 163f ac87 dbbe 627c 263e bd3d 15bf
000000d0: 8786 bbbd 110e 02be 2bd8 bd3e 1e97 763e
000000e0: 10b1 7b3c 2026 42bf f8e6 27be 4470 b2bd
000000f0: b7b9 703d c149 abbe 28ec a5be bb22 cfbd
00000100: 53ab d2be 2deb b7be 6478 c93d df79 9b3d
00000110: 7ed0 00bf 7c78 b8be 97cf 91be 155d 22bd
00000120: d143 2a3e cdf9 61bf c54d 92be 3e87 e23e
00000130: 7320 4ebe 74d0 573e f801 583d ed11 073e
00000140: c16b e7bd 7126 f63e 6a4f 7f3e 9671 7fbc
00000150: b884 213c 6ebd b23e 42b6 023d 732a c0be
00000160: 919c 9cbe d54b 00bf 3e90 5cbe 09a6 813e
00000170: c971 a1be 92b8 353e ad5b 3cbe 9044 3bbe
00000180: d238 14be 92f1 bcbe c769 ccbe 2362 013e
00000190: b1c6 f5be 9c7d 5ebe b07e 4abe 7501 23bf
000001a0: ac69 ebbd 4466 a63e c596 2c3e 353f a4be
000001b0: 36f0 1ebe 848f a83e 30ca d0bd f04f 073e
000001c0: 63a3 5abb 88ad 16bf 2461 5a3e 7a9b 0bbe
000001d0: 1e5c 083d bb54 b1be 6ec3 94be 0f07 d7be
000001e0: 5ea9 adbd c4ab 17bf 4e31 423f fcf1 ffbe
000001f0: 6d61 77be a2de 5dbd 8a3d babe 73da 75bc

fc2.weight f4 [128, 128]
0.08665728 -0.61786026 0.25668946 -0.6171238 0.2569309 0.11890064 -0.18477067 0.28404167
-0.58645016 -0.36196983 -0.21214898 -0.031574477 0.3848738 0.07462247 -0.09898173 -0.35818598
0.2683663 -0.2651661 -0.61768794 0.07951861 0.07400945 -0.024164373 -0.04347761 0.021872044
-0.11127534 0.12868762 0.060493197 -0.3161983 0.12410142 -0.2032584 0.30382085 -0.08134285
0.15917517 -0.39114192 0.033643667 -0.6011703 -0.29097992 -0.2214067 -0.4922756 -0.28839356
-0.28115755 0.23832755 -0.19118053 -0.3438612 -0.27781072 -0.12915207 -0.8016985 -0.52351326
-0.35701054 0.0076290336 0.038985804 -0.28967807 -0.528043 0.15802753 -0.057376325 -0.36142796
0.0026385922 0.19434631 -0.10754445 -0.117278315 0.11482274 -0.007692286 -0.40576786 -0.33480006
0.3909994 -0.027675293 -0.9188199 -0.37233993 -0.575922 0.09272267 -0.5708863 -0.34635785
-0.9461688 -0.46339944 -0.25878653 0.4629481 0.10859788 -0.5403907 -0.048057776 -0.173581
-0.05789547 -0.013592691 0.17199437 -0.94259894 -0.032723907 -0.26774514 -0.29874408 -0.35283428
-0.34990194 0.14093596 0.04695762 -0.44748145 0.031224106 -0.46868056 -0.30346256 0.00027679722
0.3665306 -0.0659464 0.44371882 -0.073791206 -0.40077057 0.057924498 -0.5498186 0.4062497
0.23361789 -0.41534835 -0.120451115 0.08731867 0.022691635 -0.1608343 0.044339333 -0.3674094
-0.07637661 0.22455339 -0.43383926 0.38215822 -0.2274204 0.10778412 0.22976704 0.29768503
-0.24805602 -0.0041321544 -0.16146506 0.22610685 -0.49561104 -0.39679348 0.08118221 -0.08469075
-0.111510746 -0.051564816 -0.01832215 -0.021203542 0.0076002046 -0.0072109564 -0.07745084 0.04160302
-0.029815394 -0.070525505 0.028118396 0.030999228 -0.041126005 -0.05286522 -0.078556746 -0.059109803
0.009586612 -0.06583764 0.037969206 -0.07495908 -0.041581642 -0.02902574 0.012339453 0.05662762
0.014853662 0.025574382 -0.081464544 -0.095612556 -0.1126711 -0.022656651 0.04965042 -0.046501506
-0.049087368 -0.08812822 -0.0007253726 0.004329407 -0.10057941 -0.09668502 0.037717994 -0.039236538
-0.0394939 -0.018941721 -0.04238372 -0.090497516 -0.10961248 0.03078481 -0.036377013 -0.06898971
-0.050062276 -0.06467459 -0.02449566 -0.11375179 0.035063893 -0.0077331234 -0.03369225 -0.04918891
0.002365033 -0.043569908 -0.022830803 -0.02471555 -0.08660259 -0.015411936 -0.06401765 0.034761626
-0.08351687 -0.06640153 0.0037764006 -0.11154844 -0.037617285 0.03470398 -0.06319473 0.039289698
0.038025517 0.08223119 -0.043721262 0.062496807 -0.0729908 -0.06297884 -0.019646486 0.02561415
0.021368878 0.057558224 -0.06987474 0.020581855 0.0038944555 0.037713252 0.021699728 -0.064627066
-0.085791714 0.017013988 -0.08905629 0.057141777 -0.11619743 -0.07770714 -0.023921644 -0.04511811
-0.024990888 -0.015056631 -0.05470697 0.009356442 0.07709249 -0.09612739 -0.034330208 -0.04799522
0.042121332 0.03258257 -0.06427119 -0.059466183 -0.07028425 0.035785697 -0.039785583 0.055075876
0.021183744 0.030081864 0.067830995 -0.08918692 -0.02727105 -0.06896631 0.010487613 -0.007946977
-0.026643634 -0.08662167 -0.064633235 0.007909362 -0.025630461 -0.003985377 0.019274378 -0.06707677
00000000: 5f79 b13d 172c 1ebf cd6c 833e d3fb 1dbf
00000010: 728c 833e 2e82 f33d 8634 3dbe e96d 913e
00000020: 9921 16bf 1c54 b9be 953d 59be 3d54 01bd
00000030: 2e0e c53e aad3 983d efb6 cabd 2764 b7be
00000040: 4f67 893e dac3 87be cc20 1ebf a7da a23d
00000050: 4492 973d 5df4 c5bc 9415 32bd 002d b33c
00000060: 53e4 e3bd b0c6 033e b7c7 773d bee4 a1be
00000070: e328 fe3d f822 50be 688e 9b3e 1597 a6bd
00000080: d1fe 223e c143 c8be f1cd 093d 4ce6 19bf
00000090: 52fb 94be 70b8 62be 8c0b fcbe 52a8 93be
000000a0: e2f3 8fbe 230c 743e d4c4 43be 930e b0be
000000b0: 353d 8ebe 7140 04be 1d3c 4dbf f704 06bf
000000c0: 16ca b6be f9fc f93b 94af 1f3d af50 94be
000000d0: d32d 07bf f8d1 213e 7003 6bbd 160d b9be
000000e0: 3bec 2c3b b802 473e 4440 dcbd 9d2f f0bd
000000f0: 2f28 eb3d 920f fcbb cec0 cfbe ea6a abbe
00000100: 1331 c83e 4cb7 e2bc c837 6bbf 57a3 bebe
00000110: a06f 13bf 62e5 bd3d 9b25 12bf d155 b1be
00000120: 1e38 72bf b142 edbe ab7f 84be 8907 ed3e
00000130: 9168 de3d 0b57 0abf 3bd8 44bd 38bf 31be
00000140: cd23 6dbd e1b3 5ebc 4b1f 303e 2a4e 71bf
00000150: 8109 06bd e415 89be fcf4 98be b2a6 b4be
00000160: 5926 b3be 8451 103e a256 403d 4a1c e5be
00000170: b2c9 ff3c e6f6 efbe 725f 9bbe 181f 9139
00000180: e6a9 bb3e e80e 87bd 1d2f e33e d81f 97bd
00000190: cd31 cdbe 3d42 6d3d e9c0 0cbf f6ff cf3e
000001a0: 8739 6f3e 8aa8 d4be 13af f6bd 21d4 b23d
000001b0: cfe3 b93c bfb1 24be 299d 353d 161d bcbe
000001c0: 576b 9cbd 53f1 653e 2e20 debe 3eaa c33e
000001d0: e5e0 68be ecbd dc3d 0d48 6b3e 2c6a 983e
000001e0: 6602 7ebe 0667 87bb 1957 25be 8e88 673e
000001f0: bbc0 fdbe 8428 cbbe dc42 a63d 5872 adbd
00000200: bf5f e4bd a135 53bd 5518 96bc 0db3 adbc
00000210: 230b f93b e349 ecbb 8c9e 9ebd ee67 2a3d
00000220: 6a3f f4bc ad6f 90bd 8d58 e63c 18f2 fd3c
00000230: be73 28bd 3389 58bd 5ce2 a0bd 1f1d 72bd
00000240: 2a11 1d3c e2d5 86bd 9985 1b3d 2584 99bd
00000250: 8351 2abd 64c7 edbc 6b2b 4a3c 5df2 673d
00000260: c65c 733c 5e81 d13c e2d6 a6bd 84d0 c3bd
00000270: 1bc0 e6bd 719a b9bc 3d5e 4b3d 5d78 3ebd
00000280: d60f 49bd 917c b4bd ee26 3eba b3dd 8d3b
00000290: 94fc cdbd cc02 c6bd 2f7e 1a3d 7eb6 20bd
000002a0: 5bc4 21bd ab2b 9bbc 8d9a 2dbd c356 b9bd
000002b0: 827c e0bd 6d30 fc3c 1000 15bd 7a4a 8dbd
000002c0: 1a0e 4dbd 1d74 84bd 1fab c8bc b3f6 e8bd
000002d0: 289f 0f3d 2466 fdbb e200 0abd 4f7a 49bd
000002e0: abfe 1a3b 5c76 32bd aa07 bbbc 4478 cabc
000002f0: b35c b1bd 5882 7cbc b01b 83bd 3562 0e3d
00000300: e50a abbd 86fd 87bd 7d7d 773b 8273 e4bd
00000310: 9514 1abd c325 0e3d 3d6c 81bd 3cee 203d
00000320: a5c0 1b3d d368 a83d 1115 33bd a7fc 7f3d
00000330: 337c 95bd 0dfb 80bd abf1 a0bc c4d4 d13c
00000340: c90d af3c 2cc2 6b3d 7d1a 8fbd 479b a83c
00000350: 1f3a 7f3b 3679 1a3d a1c3 b13c 325b 84bd
00000360: 91b3 afbd eb60 8b3c 2563 b6bd 7f0d 6a3d
00000370: ebf8 edbd ec24 9fbd 53f7 c3bc c4cd 38bd
00000380: b1b9 ccbc 16b0 76bc 6a14 60bd c34b 193c
00000390: abe2 9d3d 70de c4bd d59d 0cbd a396 44bd
000003a0: 6b87 2c3d 4d75 053d 9da0 83bd d092 73bd
000003b0: 30f1 8fbd 0694 123d 35f6 22bd 3e97 613d
000003c0: 8889 ad3c 3e6e f63c faea 8a3d a2a7 b6bd
000003d0: 8967 dfbc 353e 8dbd 3dd4 2b3c 0a34 02bc
000003e0: c043 dabc b466 b1bd 6e5e 84bd 4596 013c
000003f0: f9f6 d1bc c497 82bb 4de5 9d3c 8c5f 89bd

fc2.bias f4 [128]
-0.20489992 0.015308896 0.025751486 -0.08083866 -0.00486694 -0.10384392 -0.20669176 0.015185256
0.016846685 -0.48601076 -0.37296522 0.39474198 0.017868498 0.18478587 -0.41058907 -0.0076843314
0.1074223 0.05821164 0.18708847 0.23241876 -0.047666635 -0.09599628 -0.07143403 -0.036761664
0.000688977 0.2784152 -0.16828479 0.10329985 -0.15488659 -0.08608918 0.14096613 -0.13779296
-0.2276488 -0.10833354 0.104982175 0.4237239 -0.11045224 0.20952255 -0.094660014 -0.11807914
0.13388778 -0.011950137 -0.050251868 -0.023427755 -0.117808625 -0.11657912 -0.002139731 0.061228886
-0.3403473 -0.4536432 0.019381603 0.083660185 -0.30310202 -0.13697039 0.12822802 -0.23788096
0.26626295 -0.13193727 -0.13418591 -0.5140073 0.0072108647 0.02644415 -0.0986547 -0.11801389
-0.25098252 0.34809557 -0.31051666 -0.08404625 -0.04916753 -0.63734263 0.19235356 -0.000828619
0.0044797417 -0.027681282 -0.24372911 0.18545495 -0.23214957 -0.034781888 0.03214092 -0.103286654
-0.109785974 -0.23542188 0.34829947 0.08270986 0.34362867 -0.21165146 0.22521113 -0.18825649
-0.14929403 -0.48315915 -0.1940623 -0.081236675 -0.047890972 -0.092468455 0.1417715 -0.056082927
0.24283594 -0.12394726 0.40175897 -0.20792097 0.15624347 0.056776546 0.092491895 0.08683373
-0.08230599 -0.013009679 0.26519543 -0.3220398 -0.021553595 0.020655526 -0.23544583 -0.15776253
-0.3746988 -0.37169743 0.036728643 -0.12133232 -0.093378216 -0.4206836 0.19927476 -0.031501427
0.24399252 0.44065577 0.1717028 -0.14178348 -0.34035325 -0.16229545 -0.3461347 -0.09251757
00000000: 49d1 51be 2ad2 7a3c c8f4 d23c bd8e a5bd
00000010: da7a 9fbb 1fac d4bd 01a7 53be 94cb 783c
00000020: 0f02 8a3c 67d6 f8be 4cf5 bebe 9f1b ca3e
00000030: f560 923c 8238 3d3e bb38 d2be d8cc fbbb
00000040: 3900 dc3d 546f 6e3d 1f94 3f3e 2fff 6d3e
00000050: 173e 43bd b399 c4bd 014c 92bd 6693 16bd
00000060: 779c 343a 708c 8e3e d952 2cbe df8e d33d
00000070: 979a 1ebe 864f b0bd 6d59 103e 9919 0dbe
00000080: c41c 69be fadd ddbd e500 d73d 57f2 d83e
00000090: c934 e2bd 148d 563e 1cdd c1bd 7ad3 f1bd
000000a0: e119 093e 82ca 43bc e7d4 4dbd 90eb bfbc
000000b0: a645 f1bd 09c1 eebd bb3a 0cbb 24cb 7a3d
000000c0: 0042 aebe ec43 e8be 2bc6 9e3c 0856 ab3d
000000d0: 3030 9bbe f741 0cbe 354e 033e 1197 73be
000000e0: 9e53 883e 901a 07be 0868 09be fb95 03bf
000000f0: 1e49 ec3b 67a1 d83c 7a0b cabd 44b1 f1bd
00000100: c880 80be 9539 b23e 0afc 9ebe 7120 acbd
00000110: e463 49bd e328 23bf 55f8 443e ae37 59ba
00000120: ccca 923b dbc3 e2bc 2094 79be e7e7 3d3e
00000130: 9eb8 6dbe 7477 0ebd 33a6 033d f487 d3bd
00000140: 78d7 e0bd 6f12 71be 4f54 b23e c963 a93d
00000150: 19f0 af3e 29bb 58be bf9d 663e 4fc6 40be
00000160: 89e0 18be a360 f7be 44b8 46be 6a5f a6bd
00000170: 5329 44bd 1a60 bdbd 8c2c 113e 36b7 65bd
00000180: fca9 783e 10d8 fdbd 5ab3 cd3e 3ce9 54be
00000190: 4afe 1f3e 868e 683d 646c bd3d e2d5 b13d
000001a0: 0b90 a8bd 8c26 55bc b2c7 873e 67e2 a4be
000001b0: 2a91 b0bc c735 a93c b618 71be 808c 21be
000001c0: 85d8 bfbe 204f bebe c670 163d 147d f8bd
000001d0: 143d bfbd d763 d7be af0e 4c3e a407 01bd
000001e0: 2dd9 793e a29d e13e dcd2 2f3e b02f 11be
000001f0: c842 aebe c730 26be 9138 b1be da79 bdbd

fc3.weight f4 [4, 128]
0.101146065 0.0448791 0.039852794 -0.0071791913 -0.23104359 0.6108332 0.5054578 -0.5919998
0.0025121435 -0.5185101 0.3802276 0.45053715 0.065894015 -0.01615264 -0.5392928 0.10308282
-0.1884393 0.049819615 1.0498486 -0.62616783 -0.9205352 -0.7403633 0.04108271 0.060930885
-0.02235772 1.039097 -0.45309976 0.19209543 0.113066144 0.056325044 1.0650487 -0.25202706
-0.65390563 -0.21205102 0.5700776 -0.86657476 -0.6306728 -0.5435315 0.44725743 -0.04922445
0.658247 0.8030263 -0.1788146 -0.24659663 0.022616182 0.3247792 0.054071125 -0.081376754
-0.4410986 -0.7903275 -0.36080217 -1.0064762 -0.67315704 0.02899818 -0.24998918 -0.45795396
0.0909041 -0.14245749 0.027678637 -0.4958894 -0.616617 -0.22399595 0.072181195 -0.031227749
-0.32850987 -0.20160498 0.28766412 0.0050307643 -0.06104605 -0.6959974 -0.6786468 0.06645842
-0.19408734 -0.8431038 0.4100097 1.2838937 -0.07751465 -0.33134267 1.3832567 -0.04488055
0.05130557 -0.98002154 -1.0871409 -0.23563436 -0.2604403 -0.6214442 1.1298882 0.32625648
-0.21759924 -0.5864768 -0.5053817 -0.32632935 -0.24418803 0.060364574 -0.7173552 0.050219208
-0.43346226 -0.27153277 -1.0450538 -0.62524295 1.1833904 0.021401638 -0.17440276 0.032519706
0.84674436 0.31921688 1.0701213 0.19583566 -0.48981056 -0.9843472 0.41028568 -0.72441983
0.51752293 -0.9982278 -0.5943388 0.96529603 0.12371924 -0.5838201 1.255473 -0.3781934
1.0090828 -0.661962 -0.42295644 -1.1610963 -0.27274883 -0.049844638 -0.37107378 0.31861183
-0.36281762 0.0894747 0.011892292 -0.0051924996 -0.26900852 -0.036727503 0.33827057 -0.6939016
-0.0035978155 -0.24528527 0.27499115 0.7934887 0.074488916 -0.17815086 -0.68719333 -0.14512846
-0.3460896 0.0060038376 0.6785503 0.23435079 -1.4575115 -0.978817 0.068698466 0.015346529
0.02771182 1.1294966 -0.31648743 -1.5865163 -0.13213518 0.08164287 0.77632254 -0.37797758
-0.61650026 -0.36143455 0.69460464 -0.63362753 -1.535443 -0.646084 1.3153957 -0.033131465
1.158557 1.0310987 -0.34360185 -0.27299526 -0.0053474447 0.765932 -0.00029304542 0.00789755
-0.9122845 -0.3851712 -0.32401258 -0.5202142 -0.3834281 0.04107978 -0.28794357 -0.6560289
-0.2591712 -0.45049465 -0.03164806 0.5364146 0.04333286 -1.0692987 0.037924964 0.09011787
0.6605167 -0.5675969 0.35600162 -0.042622477 0.0627118 0.26888767 -0.9874612 0.009802487
-0.31360266 -0.54541457 -0.2235247 1.3973839 -0.4549646 -0.3241918 0.8462483 0.022588778
0.07720451 0.22327176 -0.5331783 -0.34340543 -0.040232737 0.9738274 0.4969581 -0.5295917
-0.3908676 -0.4830204 -0.0018510637 -0.34892258 0.1663336 0.011161874 -0.8399094 0.016701356
-0.03729279 -0.27996552 -0.6322917 -0.6639237 1.5267951 0.06657741 -0.2958815 0.018084439
0.27916306 -0.765856 1.0820134 -0.44521028 0.51139104 -1.058456 0.68943363 -0.67286026
0.69390744 -0.8498095 -1.039928 -0.15940984 -1.4715271 0.060779013 1.1517531 -0.2266956
0.8806553 -0.8289461 -0.5488853 -0.92980456 -0.8917289 -0.376647 -0.218724 -0.15137611
00000000: ab25 cf3d 26d3 373d af3c 233d 6c3f ebbb
00000010: b196 6cbe 915f 1c3f af65 013f 4d8d 17bf
00000020: c6a2 243b 14bd 04bf 31ad c23e ceac e63e
00000030: 71f3 863d 8b52 84bc 180f 0abf 161d d33d
00000040: 3bf6 40be a70f 4c3d 7061 863f 894c 20bf
00000050: 32a8 6bbf 7388 3dbf 5846 283d aa92 793d
00000060: 8a27 b7bc 2101 853f b1fc e7be aab4 443e
00000070: 398f e73d 17b5 663d 8453 883f b109 81be
00000080: 5c66 27bf e723 59be 9bf0 113f d8d7 5dbf
00000090: c673 21bf e124 0bbf edfe e43e 949f 49bd
000000a0: e082 283f 2293 4d3f 2d1b 37be d483 7cbe
000000b0: 9245 b93c 7649 a63e af79 5d3d dba8 a6bd
000000c0: add7 e1be e752 4abf 10bb b8be 36d4 80bf
000000d0: 0554 2cbf 978d ed3c 2afd 7fbe f178 eabe
000000e0: ee2b ba3d 60e0 11be 4fbe e23c 37e5 fdbe
000000f0: 9dda 1dbf 325f 65be bcd3 933d 56d1 ffbc
00000100: 7232 a8be 8971 4ebe b648 933e 1cd9 a43b
00000110: 6c0b 7abd e32c 32bf ccbb 2dbf 5a1b 883d
00000120: d5be 46be a7d5 57bf cbec d13e a156 a43f
00000130: 00c0 9ebd bfa5 a9be 8e0e b13f abd4 37bd
00000140: ca25 523d b1e2 7abf 6f27 8bbf 224a 71be
00000150: 6e58 85be f816 1fbf 2da0 903f 170b a73e
00000160: 56d2 5ebe 5823 16bf b260 01bf a414 a7be
00000170: 6d0c 7abe d840 773d 97a4 37bf a8b2 4d3d
00000180: c4ee ddbe 5806 8bbe 53c4 85bf ec0f 20bf
00000190: 5679 973f 7d52 af3c a396 32be 6233 053d
000001a0: 3dc4 583f 6570 a33e bcf9 883f 2589 483e
000001b0: 73c8 fabe 2efe 7bbf f710 d23e 9473 39bf
000001c0: 627c 043f db8b 7fbf 9626 18bf a41d 773f
000001d0: 8360 fd3d 3c75 15bf 57b3 a03f 91a2 c1be
000001e0: a029 813f 5776 29bf bf8d d8be ce9e 94bf
000001f0: bca5 8bbe e429 4cbd 62fd bdbe 1721 a33e
00000200: 3bc3 b9be 833e b73d e3d7 423c d825 aabb
00000210: 7cbb 89be 946f 16bd cd31 ad3e 89a3 31bf
00000220: 54c9 6bbb 102c 7bbe a4cb 8c3e 1322 4b3f
00000230: a58d 983d 2e6d 36be e7eb 2fbf 8e9c 14be
00000240: a832 b1be d7bb c43b 79b5 2d3f a7f9 6f3e
00000250: bd8f babf c093 7abf c8b1 8c3d 0270 7b3c
00000260: e603 e33c 5893 903f a40a a2be f712 cbbf
00000270: 724e 07be 6134 a73d 13bd 463f 4786 c1be
00000280: f6d2 1dbf f30d b9be 9cd1 313f 6a35 22bf
00000290: 6589 c4bf c365 25bf e35e a83f dcb4 07bd
000002a0: 994b 943f 0bfb 833f 95ec afbe 09c6 8bbe
000002b0: 9e39 afbb 1f14 443f e4a3 99b9 ba64 013c
000002c0: 7a8b 69bf 2935 c5be fae4 a5be c22c 05bf
000002d0: b050 c4be 4543 283d 576d 93be 83f1 27bf
000002e0: 16b2 84be 3ca7 e6be 65a1 01bd 7852 093f
000002f0: cc7d 313d c8de 88bf 3557 1b3d b88f b83d
00000300: 9f17 293f 084e 11bf d845 b63e e894 2ebd
00000310: 0b6f 803d a5ab 893e 42ca 7cbf 9c9a 203c
00000320: 8790 a0be 4aa0 0bbf a9e3 64be 7add b23f
00000330: 1ff1 e8be 78fc a5be bba3 583f 1a0c b93c
00000340: 661d 9e3d 5aa1 643e 607e 08bf d6d2 afbe
00000350: 15cb 24bd c14c 793f 4b71 fe3e 5293 07bf
00000360: cc1f c8be 734e f7be 649f f2ba fba5 b2be
00000370: 5b53 2a3e 4be0 363c 4d04 57bf 48d1 883c
00000380: 53c0 18bd a457 8fbe dedd 21bf e7f6 29bf
00000390: 066e c33f bd59 883d c87d 97be d125 943c
000003a0: 76ee 8e3e 240f 44bf 6a7f 8a3f 9af2 e3be
000003b0: 86ea 023f 7c7b 87bf b97e 303f 9240 2cbf
000003c0: eba3 313f 1e8d 59bf 5c1c 85bf 553c 23be
000003d0: 005b bcbf 6af3 783d a56c 933f e422 68be
000003e0: a072 613f d035 54bf bf83 0cbf ac07 6ebf
000003f0: 5848 64bf e0d7 c0be 2ff9 5fbe 5702 1bbe

fc3.bias f4 [4]
0.046252884 -0.11454236 0.09293683 -0.16530168
00000000: aa73 3d3d 2f95 eabd aa55 be3d d844 29be
