checkpoints/checkpoint-608-solved.pth (torch, 75416 bytes, 6 tensors)

fc1.weight f4 [128, 8]
0.22766164 0.07375719 -1.1979007 -0.8250122 0.10517034 0.16539346 0.038522583 0.2661893
0.2971237 0.15408248 0.28058323 -0.23699756 -0.76028025 -0.937233 -0.45744696 0.47600505
-0.082711294 0.46896738 0.24846834 0.07507713 0.38588554 0.75118923 -0.07348788 0.3812188
-0.5300906 0.41810447 1.6051549 -0.82985777 -0.6613817 -0.080112964 -0.14749087 0.32925504
-0.42815182 -1.516095 -0.19917212 -0.47994316 -0.7831421 0.40974712 0.44072494 0.15930593
-0.3772389 -3.0006757 0.3767553 -0.76415795 -0.5221481 0.28995824 0.13508666 -0.048912246
0.23499335 -1.5071604 0.690356 0.9984314 0.2966744 -0.6128203 0.5633014 0.0778086
0.3916896 -2.201919 0.034200653 -0.43775854 0.13281351 -0.097856626 0.13767485 0.12318618
0.036968496 -0.27518627 0.18852678 -0.22954841 0.5524884 0.30088225 -0.69183743 0.17996295
-0.054086376 0.3533211 0.5497589 1.2045875 -0.2603048 -0.790459 -0.039700557 -0.05966263
-0.6801831 0.7062187 0.16201884 -0.6924567 0.47320402 0.7906094 0.23011048 -0.4634951
-0.053722028 -3.4859655 0.51295656 -0.009674051 0.016728455 0.5131751 -0.83193046 -0.53565824
0.7902166 -0.05267849 -0.39012215 -0.049535055 1.3004884 0.8308947 -1.0631996 -0.23423918
-0.41685885 -0.67277616 -0.101051964 -0.9391474 0.29971516 0.31013986 -0.34306452 0.4692196
-0.375764 0.38032994 -0.1490647 0.9648238 0.7535377 0.4558246 0.14456652 0.5506446
0.5006158 0.23587699 -0.21372639 -0.12155263 -0.55708945 0.04208576 -0.06326086 -0.24914514
-0.7146389 -1.2943474 -1.2082522 -0.61814886 0.62145346 -0.11461699 0.11043569 0.025953224
0.16561057 -0.0116537195 0.3049953 -0.04614953 1.3171024 0.78575104 0.584496 0.013918158
-0.36348408 -0.7817854 0.35535264 -0.42282122 -0.4166321 -0.4636902 -0.45683423 -0.15682149
-0.047600217 -0.06810496 0.75957835 -1.5449871 0.20592886 -0.07555418 0.07555842 0.093307376
-0.040337067 -0.081386395 -0.99949247 -1.4442445 0.28328076 0.11823832 0.104043305 0.12601016
-0.32322234 -1.2729925 0.33716404 -1.1022054 0.53229254 0.856005 -0.35463825 0.13342434
-0.1268411 -0.65470487 0.7422991 -0.5016446 0.0702397 0.7070315 0.30690017 -0.3644235
0.58224833 -0.18495943 -0.026628526 -0.16433339 -0.73813117 0.45804778 0.40867794 0.46607995
-0.6662011 -1.5007817 -0.7716075 -0.6866588 -0.108422704 -0.13598984 -0.30174854 -0.22939195
-0.061459906 -0.10839937 -1.0384338 -0.96781933 -1.4892437 0.09026752 0.06067866 0.03351051
0.60676277 -0.613787 0.2073277 -0.2181097 0.108357154 -0.037755683 0.14878045 0.27080196
-0.44019777 -0.9909183 0.6622773 -0.75120056 0.43448773 0.35859665 0.16129847 0.41794577
-0.31415674 -0.061562512 -1.1434262 -0.54990625 -0.58957183 0.18142532 -0.3071289 -0.05494631
-0.21494704 0.58668125 0.42841026 -0.5914623 0.0036356398 -0.9398158 -0.83267087 0.2671088
-0.5988034 0.7568619 -0.2806719 -0.2410625 -0.35147995 -0.6263524 0.5492752 -1.1214114
-0.14530535 0.014387745 0.11578804 0.3060237 1.4587855 0.2245278 -0.0526277 -0.34427506
00000000: 2220 693e 020e 973d cf54 99bf 0034 53bf
00000010: 8c63 d73d e75c 293e dbc9 1d3d f749 883e
00000020: 9920 983e ccc7 1d3e 9ba8 8f3e 7daf 72be
00000030: baa1 42bf 80ee 6fbf 7d36 eabe efb6 f33e
00000040: 8a64 a9bd 7e1c f03e 7c6e 7e3e 0ac2 993d
00000050: ca92 c53e f04d 403f d080 96bd 1c2f c33e
00000060: 04b4 07bf ca11 d63e b775 cd3f 8f71 54bf
00000070: 5050 29bf 4412 a4bd d907 17be 1e94 a83e
00000080: b736 dbbe 670f c2bf c7f3 4bbe 1cbb f5be
00000090: 007c 48bf 60ca d13e b3a6 e13e 1821 233e
000000a0: 7525 c1be 120b 40c0 12e6 c03e db9f 43bf
000000b0: 7fab 05bf 6875 943e 2854 0a3e 3558 48bd
000000c0: 19a2 703e a2ea c0bf 2cbb 303f 3399 7f3f
000000d0: b5e5 973e cbe1 1cbf 8534 103f 1e5a 9f3d
000000e0: 8a8b c83e 3eec 0cc0 fc15 0c3d e321 e0be
000000f0: 4400 083e 0e69 c8bd a3fa 0c3e 0949 fc3d
00000100: 476c 173d 37e5 8cbe 2a0d 413e bd0e 6bbe
00000110: e16f 0d3f 3d0d 9a3e 421c 31bf 3548 383e
00000120: ad89 5dbd 81e6 b43e 00bd 0c3f ec2f 9a3f
00000130: ac46 85be 855b 4abf 0d9d 22bd cd60 74bd
00000140: 7b20 2ebf c0ca 343f 44e8 253e d844 31bf
00000150: cc47 f23e 6165 4a3f 15a2 6b3e 3b4f edbe
00000160: a10b 5cbd 0f1a 5fc0 1f51 033f e97f 1ebc
00000170: 1d0a 893c 715f 033f 65f9 54bf e620 09bf
00000180: a34b 4a3f 66c5 57bd 17be c7be 45e5 4abd
00000190: 6776 a63f 84b5 543f ed16 88bf 65dc 6fbe
000001a0: 866e d5be 0f3b 2cbf 55f4 cebd f76b 70bf
000001b0: 4474 993e a7ca 9e3e 27a6 afbe 8d3d f03e
000001c0: 2464 c0be 9bba c23e 6ba4 18be b1fe 763f
000001d0: d9e7 403f d861 e93e 3f09 143e 0bf7 0c3f
000001e0: 5b28 003f bd89 713e 17db 5abe 96f0 f8bd
000001f0: 6a9d 0ebf 1e62 2c3d e98e 81bd e71f 7fbe
00000200: 93f2 36bf 2dad a5bf 02a8 9abf 013f 1ebf
00000210: 9317 1f3f 50bc eabd 1b2c e23d db9b d43c
00000220: d195 293e 3eef 3ebc 5828 9c3e 4a07 3dbd
00000230: d096 a83f fb26 493f 88a1 153f fc08 643c
00000240: 961a babe 1723 48bf c8f0 b53e 067c d8be
00000250: cd50 d5be cd68 edbe 2de6 e9be d095 20be
00000260: 72f8 42bd 9d7a 8bbd ba73 423f 23c2 c5bf
00000270: 04df 523e 26bc 9abd 5fbe 9a3d f017 bf3d
00000280: 7b38 25bd e9ad a6bd bdde 7fbf 01dd b8bf
00000290: 2d0a 913e ef26 f23d a814 d53d cf08 013e
000002a0: 667d a5be 6bf1 a2bf c4a0 ac3e 1115 8dbf
000002b0: 5344 083f 2523 5b3f 2593 b5be 64a0 083e
000002c0: a2e2 01be bd9a 27bf 5007 3e3f c86b 00bf
000002d0: d5d9 8f3d 0400 353f 0522 9d3e b895 babe
000002e0: 3a0e 153f 0166 3dbe 1124 dabc 0347 28be
000002f0: 2af6 3cbf 3d85 ea3e 3c3e d13e 08a2 ee3e
00000300: 288c 2abf 9d19 c0bf 1288 45bf dfc8 2fbf
00000310: b90c debd ec40 0bbe c97e 9abe b9e5 6abe
00000320: 62bd 7bbd 7d00 debd 66eb 84bf 02c3 77bf
00000330: 8a9f bebf 2dde b83d 308a 783d 5142 093d
00000340: ce54 1b3f 2521 1dbf b64d 543e 2658 5fbe
00000350: 5bea dd3d b4a5 1abd e759 183e 8ea6 8a3e
00000360: 9a61 e1be d2ac 7dbf 018b 293f ae4e 40bf
00000370: 2d75 de3e fb99 b73e 6d2b 253e fdfc d53e
00000380: 27d9 a0be f928 7cbd ca5b 92bf a8c6 0cbf
00000390: 2eee 16bf 8fc7 393e 0040 9dbe 620f 61bd
000003a0: 141b 5cbe be30 163f 9758 db3e 136a 17bf
000003b0: ea43 6e3b c597 70bf eb29 55bf 7cc2 883e
000003c0: 2e4b 19bf b4c1 413f 3ab4 8fbe 17d9 76be
000003d0: 2ef5 b3be a258 20bf 4d9d 0c3f 698a 8fbf
000003e0: edca 14be 94ba 6b3c 4822 ed3d 23af 9c3e
000003f0: 7cb9 ba3f 9eea 653e 2590 57bd d244 b0be

fc1.bias f4 [128]
-0.19748306 -0.011957779 -0.7363005 -0.15460403 -0.37226078 0.12239758 0.22625041 -0.2217213
-0.8097448 0.09858369 0.26134813 0.18194361 -0.35954836 -0.43661866 -0.75576574 0.74055463
-0.17725985 -0.021981716 0.35698098 0.03556889 -0.0022508071 -0.09377911 -0.4410358 -0.4609639
-0.39019436 0.06185103 -0.39424953 -0.58544624 0.07625579 0.11221915 0.24242055 0.05028937
0.1632428 0.43922925 0.1472668 -0.38854858 -0.7167844 -0.06702747 0.037368916 0.22408302
-0.54741776 -0.22189437 -0.2733064 -0.025210796 0.5929889 0.246082 0.26112738 -0.030149799
0.6265774 -0.4260108 0.09718762 -0.5963285 -0.13763359 -0.15728408 0.35099173 0.3421474
0.014828196 -0.8110932 -0.17205009 -0.068528526 0.07833402 -0.2742744 -0.31019652 -0.11849469
-0.48811215 -0.28893104 0.07670599 0.013013939 -0.51687855 -0.392496 -0.11747831 -0.054153677
0.0785699 -0.9316774 -0.20010811 0.49726436 -0.13444123 0.24755225 0.047944788 0.12136167
-0.09874933 0.47978574 0.26592967 0.06936621 0.012049753 0.40393808 0.045798916 -0.24029772
-0.3668732 -0.5628871 -0.1615906 0.26582798 -0.22861491 0.21603914 -0.14340752 -0.19864552
-0.06437066 -0.37488827 -0.40321633 0.12720683 -0.55888444 -0.24898973 -0.21189462 -0.6510767
-0.026615208 0.3443831 0.16421477 -0.36191052 -0.108202 0.34827787 -0.074191086 0.113546364
0.01666802 -0.5812685 0.19442329 -0.10626018 0.004049332 -0.46095645 -0.26083085 -0.48744527
-0.12972896 -0.5819642 0.85321265 -0.545099 -0.22400695 -0.058094017 -0.37882188 -0.04006565
00000000: 0039 4abe 8fea 43bc 317e 3cbf 8550 1ebe
00000010: f798 bebe 95ab fa3d 30ae 673e e90a 63be
00000020: 6f4b 4fbf 3fe6 c93d 6ccf 853e 6d4f 3a3e
00000030: b916 b8be 7b8c dfbe dd79 41bf fd94 3d3f
00000040: 9b83 35be 0013 b4bc 36c6 b63e afb0 113d
00000050: 4782 13bb 430f c0bd 72cf e1be 7603 ecbe
00000060: 8ec7 c7be 8157 7d3d 13db c9be cedf 15bf
00000070: ff2b 9c3d 27d3 e53d 183d 783e 3afc 4d3d
00000080: 1f29 273e a8e2 e03e 1ccd 163e d7ef c6be
00000090: 2f7f 37bf b345 89bd 2610 193d 0576 653e
000000a0: 9223 0cbf 4738 63be d1ee 8bbe df86 cebc
000000b0: 1fce 173f ebfc 7b3e 7db2 853e b6fc f6bc
000000c0: 6067 203f 161e dabe 4e0a c73d fca8 18bf
000000d0: d2ef 0cbe 140f 21be 30b5 b33e f22d af3e
000000e0: f6f1 723c cea3 4fbf e62d 30be af58 8cbd
000000f0: 966d a03d b26d 8cbe 14d2 9ebe 58ad f2bd
00000100: d6e9 f9be c5ee 93be 0818 9d3d 6b38 553c
00000110: 2752 04bf 3cf5 c8be 7898 f0bd 3fd0 5dbd
00000120: 41e9 a03d 6982 6ebf 24e9 4cbe 6f99 fe3e
00000130: f6aa 09be 567e 7d3e c161 443d 788c f83d
00000140: 173d cabd 7aa6 f53e ef27 883e df0f 8e3d
00000150: 546c 453c f9d0 ce3e a597 3b3d 9b10 76be
00000160: ced6 bbbe 5e19 10bf 0278 25be 9b1a 883e
00000170: 071a 6abe 5d39 5d3e 6cd9 12be bb69 4bbe
00000180: c4d4 83bd 5bf1 bfbe 5f72 cebe 8242 023e
00000190: 0d13 0fbf 2af7 7ebe e7fa 58be f6ac 26bf
000001a0: 2308 dabc fb52 b03e eb27 283e 564c b9be
000001b0: 0399 ddbd 7a51 b23e 7ff1 97bd ff8a e83d
000001c0: 5f8b 883c 03ce 14bf e616 473e f09e d9bd
000001d0: 42b0 843b 7c02 ecbe 9f8b 85be 6d92 f9be
000001e0: abd7 04be 9bfb 14bf 256c 5a3f 9c8b 0bbf
000001f0: 1462 65be fef3 6dbd f1f4 c1be e11b 24bd

fc2.weight f4 [128, 128]
0.08665728 -0.61786026 0.25668946 -0.6171238 0.2569309 0.11890064 -0.18477067 0.28404167
-0.58645016 -0.36196983 -0.21214898 -0.031574477 0.3848738 0.07462247 -0.09898173 -0.35818598
0.2683663 -0.2651661 -0.61768794 0.07951861 0.07400945 -0.024164373 -0.04347761 0.021872044
-0.11127534 0.12868762 0.060493197 -0.3161983 0.12410142 -0.2032584 0.30382085 -0.08134285
0.15917517 -0.39114192 0.033643667 -0.6011703 -0.29097992 -0.2214067 -0.4922756 -0.28839356
-0.28115755 0.23832755 -0.19118053 -0.3438612 -0.27781072 -0.12915207 -0.8016985 -0.52351326
-0.35701054 0.0076290336 0.038985804 -0.28967807 -0.528043 0.15802753 -0.057376325 -0.36142796
0.0026385922 0.19434631 -0.10754445 -0.117278315 0.11482274 -0.007692286 -0.40576786 -0.33480006
0.3909994 -0.027675293 -0.9188199 -0.37233993 -0.575922 0.09272267 -0.5708863 -0.34635785
-0.9461688 -0.46339944 -0.25878653 0.4629481 0.10859788 -0.5403907 -0.048057776 -0.173581
-0.05789547 -0.013592691 0.17199437 -0.94259894 -0.032723907 -0.26774514 -0.29874408 -0.35283428
-0.34990194 0.14093596 0.04695762 -0.44748145 0.031224106 -0.46868056 -0.30346256 0.00027679722
0.3665306 -0.0659464 0.44371882 -0.073791206 -0.40077057 0.057924498 -0.5498186 0.4062497
0.23361789 -0.41534835 -0.120451115 0.08731867 0.022691635 -0.1608343 0.044339333 -0.3674094
-0.07637661 0.22455339 -0.43383926 0.38215822 -0.2274204 0.10778412 0.22976704 0.29768503
-0.24805602 -0.0041321544 -0.16146506 0.22610685 -0.49561104 -0.39679348 0.08118221 -0.08469075
-0.111510746 -0.051564816 -0.01832215 -0.021203542 0.0076002046 -0.0072109564 -0.07745084 0.04160302
-0.029815394 -0.070525505 0.028118396 0.030999228 -0.041126005 -0.05286522 -0.078556746 -0.059109803
0.009586612 -0.06583764 0.037969206 -0.07495908 -0.041581642 -0.02902574 0.012339453 0.05662762
0.014853662 0.025574382 -0.081464544 -0.095612556 -0.1126711 -0.022656651 0.04965042 -0.046501506
-0.049087368 -0.08812822 -0.0007253726 0.004329407 -0.10057941 -0.09668502 0.037717994 -0.039236538
-0.0394939 -0.018941721 -0.04238372 -0.090497516 -0.10961248 0.03078481 -0.036377013 -0.06898971
-0.050062276 -0.06467459 -0.02449566 -0.11375179 0.035063893 -0.0077331234 -0.03369225 -0.04918891
0.002365033 -0.043569908 -0.022830803 -0.02471555 -0.08660259 -0.015411936 -0.06401765 0.034761626
-0.08351687 -0.06640153 0.0037764006 -0.11154844 -0.037617285 0.03470398 -0.06319473 0.039289698
0.038025517 0.08223119 -0.043721262 0.062496807 -0.0729908 -0.06297884 -0.019646486 0.02561415
0.021368878 0.057558224 -0.06987474 0.020581855 0.0038944555 0.037713252 0.021699728 -0.064627066
-0.085791714 0.017013988 -0.08905629 0.057141777 -0.11619743 -0.07770714 -0.023921644 -0.04511811
-0.024990888 -0.015056631 -0.05470697 0.009356442 0.07709249 -0.09612739 -0.034330208 -0.04799522
0.042121332 0.03258257 -0.06427119 -0.059466183 -0.07028425 0.035785697 -0.039785583 0.055075876
0.021183744 0.030081864 0.067830995 -0.08918692 -0.02727105 -0.06896631 0.010487613 -0.007946977
-0.026643634 -0.08662167 -0.064633235 0.007909362 -0.025630461 -0.003985377 0.019274378 -0.06707677
00000000: 5f79 b13d 172c 1ebf cd6c 833e d3fb 1dbf
00000010: 728c 833e 2e82 f33d 8634 3dbe e96d 913e
00000020: 9921 16bf 1c54 b9be 953d 59be 3d54 01bd
00000030: 2e0e c53e aad3 983d efb6 cabd 2764 b7be
00000040: 4f67 893e dac3 87be cc20 1ebf a7da a23d
00000050: 4492 973d 5df4 c5bc 9415 32bd 002d b33c
00000060: 53e4 e3bd b0c6 033e b7c7 773d bee4 a1be
00000070: e328 fe3d f822 50be 688e 9b3e 1597 a6bd
00000080: d1fe 223e c143 c8be f1cd 093d 4ce6 19bf
00000090: 52fb 94be 70b8 62be 8c0b fcbe 52a8 93be
000000a0: e2f3 8fbe 230c 743e d4c4 43be 930e b0be
000000b0: 353d 8ebe 7140 04be 1d3c 4dbf f704 06bf
000000c0: 16ca b6be f9fc f93b 94af 1f3d af50 94be
000000d0: d32d 07bf f8d1 213e 7003 6bbd 160d b9be
000000e0: 3bec 2c3b b802 473e 4440 dcbd 9d2f f0bd
000000f0: 2f28 eb3d 920f fcbb cec0 cfbe ea6a abbe
00000100: 1331 c83e 4cb7 e2bc c837 6bbf 57a3 bebe
00000110: a06f 13bf 62e5 bd3d 9b25 12bf d155 b1be
00000120: 1e38 72bf b142 edbe ab7f 84be 8907 ed3e
00000130: 9168 de3d 0b57 0abf 3bd8 44bd 38bf 31be
00000140: cd23 6dbd e1b3 5ebc 4b1f 303e 2a4e 71bf
00000150: 8109 06bd e415 89be fcf4 98be b2a6 b4be
00000160: 5926 b3be 8451 103e a256 403d 4a1c e5be
00000170: b2c9 ff3c e6f6 efbe 725f 9bbe 181f 9139
00000180: e6a9 bb3e e80e 87bd 1d2f e33e d81f 97bd
00000190: cd31 cdbe 3d42 6d3d e9c0 0cbf f6ff cf3e
000001a0: 8739 6f3e 8aa8 d4be 13af f6bd 21d4 b23d
000001b0: cfe3 b93c bfb1 24be 299d 353d 161d bcbe
000001c0: 576b 9cbd 53f1 653e 2e20 debe 3eaa c33e
000001d0: e5e0 68be ecbd dc3d 0d48 6b3e 2c6a 983e
000001e0: 6602 7ebe 0667 87bb 1957 25be 8e88 673e
000001f0: bbc0 fdbe 8428 cbbe dc42 a63d 5872 adbd
00000200: bf5f e4bd a135 53bd 5518 96bc 0db3 adbc
00000210: 230b f93b e349 ecbb 8c9e 9ebd ee67 2a3d
00000220: 6a3f f4bc ad6f 90bd 8d58 e63c 18f2 fd3c
00000230: be73 28bd 3389 58bd 5ce2 a0bd 1f1d 72bd
00000240: 2a11 1d3c e2d5 86bd 9985 1b3d 2584 99bd
00000250: 8351 2abd 64c7 edbc 6b2b 4a3c 5df2 673d
00000260: c65c 733c 5e81 d13c e2d6 a6bd 84d0 c3bd
00000270: 1bc0 e6bd 719a b9bc 3d5e 4b3d 5d78 3ebd
00000280: d60f 49bd 917c b4bd ee26 3eba b3dd 8d3b
00000290: 94fc cdbd cc02 c6bd 2f7e 1a3d 7eb6 20bd
000002a0: 5bc4 21bd ab2b 9bbc 8d9a 2dbd c356 b9bd
000002b0: 827c e0bd 6d30 fc3c 1000 15bd 7a4a 8dbd
000002c0: 1a0e 4dbd 1d74 84bd 1fab c8bc b3f6 e8bd
000002d0: 289f 0f3d 2466 fdbb e200 0abd 4f7a 49bd
000002e0: abfe 1a3b 5c76 32bd aa07 bbbc 4478 cabc
000002f0: b35c b1bd 5882 7cbc b01b 83bd 3562 0e3d
00000300: e50a abbd 86fd 87bd 7d7d 773b 8273 e4bd
00000310: 9514 1abd c325 0e3d 3d6c 81bd 3cee 203d
00000320: a5c0 1b3d d368 a83d 1115 33bd a7fc 7f3d
00000330: 337c 95bd 0dfb 80bd abf1 a0bc c4d4 d13c
00000340: c90d af3c 2cc2 6b3d 7d1a 8fbd 479b a83c
00000350: 1f3a 7f3b 3679 1a3d a1c3 b13c 325b 84bd
00000360: 91b3 afbd eb60 8b3c 2563 b6bd 7f0d 6a3d
00000370: ebf8 edbd ec24 9fbd 53f7 c3bc c4cd 38bd
00000380: b1b9 ccbc 16b0 76bc 6a14 60bd c34b 193c
00000390: abe2 9d3d 70de c4bd d59d 0cbd a396 44bd
000003a0: 6b87 2c3d 4d75 053d 9da0 83bd d092 73bd
000003b0: 30f1 8fbd 0694 123d 35f6 22bd 3e97 613d
000003c0: 8889 ad3c 3e6e f63c faea 8a3d a2a7 b6bd
000003d0: 8967 dfbc 353e 8dbd 3dd4 2b3c 0a34 02bc
000003e0: c043 dabc b466 b1bd 6e5e 84bd 4596 013c
000003f0: f9f6 d1bc c497 82bb 4de5 9d3c 8c5f 89bd

fc2.bias f4 [128]
-0.20489992 0.015308896 -0.0060114 -0.08083866 0.02326436 -0.10384392 -0.16164716 -0.09244392
0.016846685 -0.50402343 -0.40876555 0.33874014 0.017868498 0.18111722 -0.29967946 0.03395606
0.12601328 0.05821164 0.21051393 0.26219314 -0.07143648 -0.1293545 -0.07143403 -0.036761664
-0.031060442 0.27895492 -0.18779771 0.072442345 -0.15488659 -0.08608918 0.14769389 -0.13759752
-0.23860918 -0.10257432 0.17623487 0.48435605 -0.16295561 0.3128527 -0.056122825 -0.11807914
0.12470204 -0.017749427 -0.09387986 -0.023494346 -0.117808625 -0.099364854 -0.002139731 0.061228886
-0.37345472 -0.4764787 -0.043998815 0.132633 -0.39687902 -0.13697039 0.15722775 -0.34904185
0.28515053 -0.12262615 -0.13418591 -0.51865077 0.0033210833 -0.05445241 -0.0986547 -0.11801389
-0.26195222 0.33174586 -0.27543977 -0.08404625 -0.04916753 -0.63361603 0.17718333 -0.000828619
0.039943986 0.0023529143 -0.20589708 0.2112657 -0.3316277 -0.036733195 0.05167638 -0.103286654
-0.109785974 -0.2714757 0.33845723 0.10698639 0.32039502 -0.13766716 0.18938728 -0.22002217
-0.15731333 -0.47439983 -0.23745315 -0.021065174 -0.048449285 -0.092468455 0.23102362 -0.056082927
0.22066477 -0.22691646 0.372874 -0.2599443 0.16258378 0.056776546 0.11984999 0.06492941
-0.04248197 -0.013717414 0.30281115 -0.3220398 0.013709708 0.10634534 -0.27866036 -0.30887514
-0.3961398 -0.36423236 -0.018165987 -0.12133232 -0.24295686 -0.4206836 0.27301297 0.05781485
0.24873854 0.46783644 0.19009817 -0.14178348 -0.30179158 -0.23544426 -0.3461347 -0.13596186
00000000: 49d1 51be 2ad2 7a3c 47fb c4bb bd8e a5bd
00000010: e694 be3c 1fac d4bd d586 25be 3d53 bdbd
00000020: 0f02 8a3c ae07 01bf b849 d1be 596f ad3e
00000030: f560 923c cb76 393e 966f 99be 8215 0b3d
00000040: a009 013e 546f 6e3d f790 573e 2e3e 863e
00000050: 4a4d 92bd 8275 04be 014c 92bd 6693 16bd
00000060: 7872 febc 2ed3 8e3e 0b4e 40be a75c 943d
00000070: 979a 1ebe 864f b0bd 113d 173e 5de6 0cbe
00000080: f755 74be 7c12 d2bd ea76 343e 84fd f73e
00000090: d6dd 26be 3b2e a03e 0ce1 65bd 7ad3 f1bd
000000a0: c863 ff3d 3f67 91bc 1644 c0bd 3777 c0bc
000000b0: a645 f1bd cd7f cbbd bb3a 0cbb 24cb 7a3d
000000c0: 7535 bfbe 04f5 f3be 1a38 34bd f2d0 073e
000000d0: ba33 cbbe f741 0cbe 5000 213e 9db5 b2be
000000e0: 40ff 913e 6b23 fbbd 0868 09be 4cc6 04bf
000000f0: 88a6 593b 7e09 5fbd 7a0b cabd 44b1 f1bd
00000100: 9a1e 86be 98da a93e 7106 8dbe 7120 acbd
00000110: e463 49bd a934 22bf 8c6f 353e ae37 59ba
00000120: 4e9c 233d 5a33 1a3b afd6 52be 0956 583e
00000130: 1bcb a9be 8c75 16bd 9daa 533d f487 d3bd
00000140: 78d7 e0bd ddfe 8abe 444a ad3e ae1b db3d
00000150: d10a a43e 9ff8 0cbe bdee 413e 7e4d 61be
00000160: bf16 21be 89e4 f2be eb26 73be df90 acbc
00000170: c272 46bd 1a60 bdbd 7591 6c3e 36b7 65bd
00000180: f2f5 613e ca5c 68be 57e9 be3e 6b17 85be
00000190: 5d7c 263e 868e 683d e973 f53d b6f9 843d
000001a0: 9301 2ebd 01bf 60bc 100a 9b3e 67e2 a4be
000001b0: af9e 603c 96cb d93d 92ac 8ebe e224 9ebe
000001c0: d6d2 cabe aa7c babe d6d0 94bc 147d f8bd
000001d0: afc9 78be d763 d7be 5bc8 8b3e 44cf 6c3d
000001e0: 51b5 7e3e 4288 ef3e 18a9 423e b02f 11be
000001f0: 6d84 9abe 4d18 71be 9138 b1be 9639 0bbe

fc3.weight f4 [4, 128]
0.101146065 0.0448791 0.039852794 -0.0071791913 -0.29306626 0.6108332 0.5862281 -0.534239
0.0025121435 -0.47529557 0.38843152 0.65058386 0.065894015 -0.10880092 -0.71723115 0.12638122
-0.36975038 0.049819615 1.0958341 -0.7040102 -0.947868 -0.66616696 0.04108271 0.060930885
-0.02235772 1.0864904 -0.3513809 0.13142495 0.113066144 0.056325044 1.0132456 -0.058229394
-0.52466846 -0.419909 0.68335134 -1.1867787 -0.62609804 -0.43054414 0.5417995 -0.04922445
0.8689674 0.95543027 -0.31841847 -0.07653318 0.022616182 0.39294833 0.054071125 -0.081376754
-0.35737684 -0.6650951 -0.36080217 -1.0055538 -0.6506119 0.02899818 -0.13843869 -0.2348143
0.18823054 0.20048699 0.027678637 -0.4958894 -0.7058832 -0.018805668 0.072181195 -0.031227749
-0.28048596 -0.3486421 0.38403356 0.0050307643 -0.06104605 -0.6959974 -0.37736043 0.06645842
-0.30210048 -0.83252573 0.20627971 1.2939297 -0.07958039 -0.55877155 1.3528913 -0.04488055
0.05130557 -0.7895744 -1.4570774 -0.49825966 -0.15168475 -0.55658615 1.0574176 0.32625648
-0.3877614 -0.5293238 -0.6686643 -0.3959434 -0.33468032 0.060364574 -0.9434398 0.050219208
-0.5817657 -0.1806736 -0.9701619 -0.7065098 1.0684083 0.021401638 -0.1401969 0.024847524
0.68851763 0.54237396 1.0823386 0.19583566 -0.2608887 -0.9927236 0.67560905 -0.7058986
0.51752293 -1.1389828 -0.9615876 0.96529603 0.17230414 -0.5838201 1.3438475 -0.22791144
0.9708455 -0.61068183 -1.1419244 -1.1610963 -0.18581484 0.03756402 -0.37107378 0.21491289
-0.36281762 0.0894747 0.011892292 -0.0051924996 -0.30460292 -0.036727503 0.32033297 -0.6760271
-0.0035978155 -0.30382204 0.32159826 1.3022327 0.074488916 -0.145808 -0.69198 -0.2275514
-0.47403938 0.0060038376 0.7417471 0.18661168 -1.2427535 -1.0235542 0.068698466 0.015346529
-0.003989376 1.4198048 -0.14805254 -1.5443684 -0.13213518 0.08164287 0.77752453 -0.581886
-0.45472693 -0.51159644 0.89711124 -0.6992378 -1.5554986 -1.2059326 1.2551831 -0.033131465
1.3169861 0.9875193 -0.5393738 -0.6499808 -0.0053474447 0.85580665 -0.00029304542 0.00789755
-1.0289809 -0.319024 -0.25371248 -0.120284826 -0.52418816 0.04107978 -0.33915627 -0.5807787
-0.25681975 -0.57240564 -0.03164806 0.5046632 0.17182751 -0.9429882 0.037924964 0.09011787
0.8395323 -0.65148413 0.35020322 -0.042622477 0.0627118 0.23712718 -1.1416688 0.009802487
-0.4467905 -0.78728527 -0.2870599 1.5018054 -0.6203395 -0.09928729 0.82814026 0.022588778
0.07720451 0.12575354 -0.81292766 -0.50532407 -0.30908254 0.93516195 0.39406404 -0.4978281
-0.62124413 -0.5394707 0.038950272 -0.5313148 0.12918532 0.011161874 -0.9979816 0.016701356
-0.14689656 -0.38945207 -0.8013982 -0.39336812 1.6603127 0.06657741 -0.5539212 0.1268599
-0.33018088 -0.818055 1.0381114 -0.44521028 1.0347128 -0.83372074 0.85839903 -0.5924072
0.8203009 -0.63424623 -0.8850702 -0.15940984 -1.4053478 0.060779013 1.0770531 -0.4780523
0.96414113 -0.8090082 -0.97934294 -0.92980456 -0.75648 -0.4436047 -0.218724 0.25048912
00000000: ab25 cf3d 26d3 373d af3c 233d 6c3f ebbb
00000010: c80c 96be 915f 1c3f 0b13 163f e3c3 08bf
00000020: c6a2 243b f159 f3be 7fe0 c63e aa8c 263f
00000030: 71f3 863d 04d3 debd 769c 37bf 146a 013e
00000040: ec4f bdbe a70f 4c3d 4b44 8c3f 033a 34bf
00000050: 7aa7 72bf eb89 2abf 5846 283d aa92 793d
00000060: 8a27 b7bc 1e12 8b3f 33e8 b3be 4394 063e
00000070: 398f e73d 17b5 663d 08b2 813f f281 6ebd
00000080: ac50 06bf 50fe d6be 1df0 2e3f 5de8 97bf
00000090: f647 20bf 4870 dcbe 5fb3 0a3f 949f 49bd
000000a0: a674 5e3f 1497 743f bf07 a3be 6ebd 9cbd
000000b0: 9245 b93c 8630 c93e af79 5d3d dba8 a6bd
000000c0: 19fa b6be ac43 2abf 10bb b8be fdb5 80bf
000000d0: 808e 26bf 978d ed3c dfc2 0dbe 2973 70be
000000e0: 82bf 403e 764c 4d3e 4fbe e23c 37e5 fdbe
000000f0: c3b4 34bf 580e 9abc bcd3 933d 56d1 ffbc
00000100: db9b 8fbe 3881 b2be 0ca0 c43e 1cd9 a43b
00000110: 6c0b 7abd e32c 32bf 6335 c1be 5a1b 883d
00000120: eaac 9abe 6820 55bf fd3a 533e 7d9f a53f
00000130: 0bfb a2bd a70b 0fbf 8b2b ad3f abd4 37bd
00000140: ca25 523d 8c21 4abf 8381 babf e41b ffbe
00000150: 3f53 1bbe 6e7c 0ebf 7659 873f 170b a73e
00000160: aa88 c6be c481 07bf 952d 2bbf 18b9 cabe
00000170: 385b abbe d840 773d 4585 71bf a8b2 4d3d
00000180: 99ee 14bf 8002 39be 885c 78bf d4dd 34bf
00000190: 9ac1 883f 7d52 af3c c78f 0fbe 098d cb3c
000001a0: b142 303f 05d9 0a3f 128a 8a3f 2589 483e
000001b0: 3493 85be 2223 7ebf b7f4 2c3f c5b5 34bf
000001c0: 627c 043f 30ca 91bf 9b2a 76bf a41d 773f
000001d0: 7f70 303e 3c75 15bf 3203 ac3f 9e61 69be
000001e0: 5589 783f a555 1cbf 942a 92bf ce9e 94bf
000001f0: 3f46 3ebe bbdc 193d 62fd bdbe 2012 5c3e
00000200: 3bc3 b9be 833e b73d e3d7 423c d825 aabb
00000210: eaf4 9bbe 946f 16bd af02 a43e 1d10 2dbf
00000220: 54c9 6bbb 908e 9bbe 87a8 a43e 90af a63f
00000230: a58d 983d b14e 15be 9a25 31bf 3c03 69be
00000240: 4ab5 f2be d7bb c43b 23e3 3d3f 2217 3f3e
00000250: 8c12 9fbf d303 83bf c8b1 8c3d 0270 7b3c
00000260: 50b9 82bb 2abc b53f 169b 17be ddad c5bf
00000270: 724e 07be 6134 a73d d90b 473f 7bf6 14bf
00000280: f8d1 e8be fcf7 02bf 15a9 653f 4001 33bf
00000290: 941a c7bf 005c 9abf d7a9 a03f dcb4 07bd
000002a0: 0093 a83f 11ce 7c3f 6714 0abf 2465 26bf
000002b0: 9e39 afbb 2516 5b3f e4a3 99b9 ba64 013c
000002c0: a5b5 83bf 1d57 a3be 9ae6 81be e457 f6bd
000002d0: 3231 06bf 4543 283d e4a5 adbe eaad 14bf
000002e0: e17d 83be 2d89 12bf 65a1 01bd 9c31 013f
000002f0: 8df3 2f3e ad67 71bf 3557 1b3d b88f b83d
00000300: 97eb 563f aac7 26bf d64d b33e e894 2ebd
00000310: 0b6f 803d 78d1 723e 3422 92bf 9c9a 203c
00000320: b9c1 e4be 878b 49bf 84f9 92be 293b c03f
00000330: 92ce 1ebf 2257 cbbd 0001 543f 1a0c b93c
00000340: 661d 9e3d 89c5 003e 071c 50bf eb5c 01bf
00000350: 1140 9ebe c666 6f3f c3c2 c93e 53e3 febe
00000360: db09 1fbf c01a 0abf 528a 1f3d 3f04 08bf
00000370: 2849 043e 4be0 363c b97b 7fbf 48d1 883c
00000380: 0d6c 16be 4366 c7be 6f28 4dbf 8c67 c9be
00000390: 2085 d43f bd59 883d c8cd 0dbf 90e7 013e
000003a0: 780d a9be 0d6c 51bf d6e0 843f 9af2 e3be
000003b0: 7871 843f b96e 55bf 0ac0 5b3f 00a8 17bf
000003c0: 3dff 513f f65d 22bf f693 62bf 553c 23be
000003d0: 70e2 b3bf 6af3 783d e0dc 893f 45c3 f4be
000003e0: f4d1 763f 291b 4fbf 38b6 7abf ac07 6ebf
000003f0: aca8 41bf 2820 e3be 2ff9 5fbe 1c40 803e

fc3.bias f4 [4]
0.12930453 -0.12625855 0.09618242 -0.13464558
00000000: 6868 043e ec49 01be 4afb c43d 88e0 09be
