checkpoints/checkpoint-250.pth (torch, 75406 bytes, 6 tensors)

fc1.weight f4 [128, 8]
00000000: 4cf8 35be 4ea9 173e f262 12bf 07bb 11bf
00000010: ec2a a9bd 4ab1 cb3d 75c0 a63e 9d5c c13e
00000020: e5a1 f2bc bafe 1e3e f434 ff3c 329c 8cbe
00000030: 6408 4fbf 9351 65bf 4643 0dbf e1c0 ee3e
00000040: ee04 593e 8fd5 4f3e 06ff 853b deee 64be
00000050: c6f9 d23e d987 423f d024 213d ccb4 ca3e
00000060: b9ba d6be 0407 9a3e c097 8b3f b821 44bf
00000070: ecce dabe 9519 6bbd c025 af3d d805 193f
00000080: 5b22 c6be 77ba b8bf 3643 d1be 4552 febe
00000090: 4280 c0be 1c4a 7f3e 23f6 d73e 5243 2d3e
000000a0: e514 c5bd 1410 8abf 985c 323e a966 2cbf
000000b0: e9cd 21be d5c2 4cbe e9c0 b43e 67b9 cc3e
000000c0: 8ff8 a9bd 9bc5 a7be 798d e03e 48c0 5f3f
000000d0: 163e 803e 8c5a c1be acde 313f 2272 553e
000000e0: d7c1 813b 7b88 02c0 6af4 95bd b99d 01bf
000000f0: 0e39 bb3d 44d1 2e3e 3796 073e 0a39 613e
00000100: 8973 8dbe 34d8 a9be 5054 48be 0387 b6bd
00000110: 909d f73e a0cf a93e 421c 31bf ffe1 9f3d
00000120: 7fce 133e 2250 d63e 0d9a 113f 323f 543f
00000130: 42ae 74be 33ca 45bf 3d51 2b3d b812 863e
00000140: 4b3c 4fbf 0867 133f 950f 873e 2f1c 3bbf
00000150: 9242 803d b947 833e c218 043e f838 05be
00000160: efe5 2abe ee54 0bc0 9c6d b73d 1b89 43be
00000170: 8f0d 8e3e 5df3 773e daf9 7cbf 71fc cdbd
00000180: eca0 443f 537c 753e cc18 20bf c9f5 c6be
00000190: c80a 543f bc9b df3e a8d9 1ebf a479 c03d
000001a0: 7480 05bf 5073 a5bf 24bb ccbd 2767 0bbf
000001b0: 74e6 8fbd 6b14 723e 17d8 f23d b121 a13e
000001c0: 7b4d 8abe 061d 203e 2236 a63d 2dbf c9be
000001d0: f50c 903e 1aa1 05bb d86b 693c b330 033f
000001e0: 042f fa3e 02e3 a73e f341 02be 8a43 63be
000001f0: 863c c4be 394b 7fbc 7535 4abe 17e6 f1be
00000200: 4785 27bf 434a f1bf 301a 57bf 7128 55be
00000210: 56e4 18be d4ed 2fbe 5dd8 043e 9b8b b93d
00000220: 770d 103e 0e7c 04be 0cd6 943d 4432 f73d
00000230: 5e8c 813f c0ef 433f bc56 2c3f d409 12bd
00000240: ba12 ddbe cbb9 3fbf ef0e 8e3e 867f d5be
00000250: ec16 fcbe 16d9 1cbf 6e18 07bf 786a 6fbc
00000260: d845 f5bd cca1 ea3d e647 fe3e 5181 8cbf
00000270: 18ab 8d3e dd8d d5be b06e 133e e21d 1f3e
00000280: 64f2 d7bd 62af 86bb f84b 0ebf 9258 54bf
00000290: 9375 6a3e 75ae bd3e be05 9ebc 24bb 613e
000002a0: 4a60 c8be 66ac b8bf 330b 9b3e 9459 14bf
000002b0: 7c87 053f 3286 d13e 55c9 cfbd a7d0 763e
000002c0: 0e0d 0fbe 274e 30bf 870c db3e 3ab7 2dbf
000002d0: 080d 413e 150f 233d 3046 bd3e 5b91 6e3e
000002e0: 3ad4 c73e 363f 47bf b169 79bd ff3b 11bd
000002f0: 53c1 b0be b4f8 033e a84b ee3e b811 e63e
00000300: 9857 0fbf e4b4 c7bf 9007 6fbf 4e5f f4be
00000310: dba8 d4be f2c0 96bd 0982 47be 9500 4c3c
00000320: 7d50 bcbe d35d 283d 8fe3 0dbf 277c 47bf
00000330: 478f 08bf 8aaf 5c3e 4367 c3bd 67ab e03d
00000340: 19a0 7f3e 0535 87bf 3205 263e 925f e3be
00000350: 341b d33d 59fa 5d3d dd3f 593e d242 a73e
00000360: bfda 9ebe 4247 b9bf b42e 0f3f 9d9d ddbe
00000370: dcf3 2e3e 30f5 863e 8d8a 3a3e 80fc cc3e
00000380: 4af6 febe cea9 34bd 3881 1ebf c1b0 f5be
00000390: 9a37 5dbe 7ef9 823d c255 823e d529 953e
000003a0: 96dc 9cbe 0c40 083f 9c68 e73e 2c67 2bbf
000003b0: 8172 4d3e b385 0abf 5a12 07bc 37fc db3e
000003c0: 617e 0abf 575c 3a3f 5ed1 dfbe 1030 9bbe
000003d0: 06af a23c c419 00bf a990 043f 3a6f 2fbf
000003e0: eac4 b63e 3201 10bc c113 d0be e62f e1bc
000003f0: cbc4 643f 0712 563e 31b1 cabe ff00 15be
-0.17770499 0.14810678 -0.5718223 -0.56926006 -0.0826014 0.099459246 0.32568708 0.3776597
-0.029618213 0.15526858 0.03115318 -0.27462918 -0.8087218 -0.895776 -0.55180776 0.4663153
0.21193287 0.2029631 0.004089239 -0.22356746 0.41206187 0.7598854 0.039341748 0.39591062
-0.41939333 0.30083477 1.0905685 -0.7661395 -0.42735994 -0.057397444 0.08552122 0.5977454
-0.38698086 -1.4431905 -0.4087159 -0.49672142 -0.37597853 0.24930614 0.42179975 0.16920212
-0.09623126 -1.0786157 0.17418134 -0.67344147 -0.15801205 -0.19996198 0.3530343 0.399852
-0.08299362 -0.32767949 0.43857935 0.8740277 0.25047368 -0.37764394 0.69480395 0.2084432
0.003959875 -2.03958 -0.07322009 -0.5063129 0.09141742 0.17072016 0.13240896 0.21994415
-0.2762721 -0.33172762 -0.19563413 -0.0891247 0.48362398 0.33166218 -0.69183743 0.07806777
0.14434241 0.4185801 0.5687569 0.8290893 -0.23894599 -0.77261657 0.04182552 0.26186156
-0.80951375 0.5757909 0.26379076 -0.7308988 0.06262697 0.25640658 0.1290007 -0.13010013
-0.16689275 -2.1770587 0.08956453 -0.1909527 0.2774472 0.2421393 -0.98818743 -0.10057915
0.7680805 0.23973207 -0.6253784 -0.38859394 0.8282895 0.43673503 -0.6205087 0.09398201
-0.5214913 -1.2925816 -0.09996632 -0.54454273 -0.07026377 0.23640601 0.11857622 0.31471017
-0.27012238 0.15636072 0.08115794 -0.39403668 0.28134885 -0.0020390213 0.014246903 0.51246184
0.48863995 0.3279038 -0.1272047 -0.22193733 -0.38327426 -0.015581899 -0.19746955 -0.47245857
-0.6543774 -1.8850788 -0.84024334 -0.20816208 -0.14930853 -0.17180568 0.12973161 0.09059831
0.14067636 -0.12937948 0.07267389 0.12070134 1.0120962 0.76537704 0.67319846 -0.035653904
-0.4317835 -0.7489287 0.27745768 -0.41698855 -0.49236238 -0.61268747 -0.5277165 -0.0146127865
-0.11976212 0.114566416 0.4966423 -1.0976964 0.27669597 -0.41709796 0.14397693 0.15538743
-0.10544279 -0.0041102627 -0.5558467 -0.8294765 0.22896414 0.37047163 -0.019289847 0.22044045
-0.39135963 -1.4427612 0.30281982 -0.57949185 0.5215986 0.40922695 -0.10145823 0.24103032
-0.13969824 -0.6886925 0.42782995 -0.67857707 0.18852627 0.039809305 0.3696761 0.23297636
0.39029104 -0.7783083 -0.06089181 -0.035457607 -0.34522495 0.12887841 0.46542096 0.44935393
-0.5599303 -1.5602078 -0.93370914 -0.47728962 -0.41535076 -0.0736102 -0.19483198 0.012451311
-0.36780158 0.041105103 -0.5542535 -0.77923816 -0.53343624 0.21551338 -0.0954118 0.109701924
0.24963416 -1.0563055 0.1621292 -0.44408852 0.10307923 0.05419383 0.21215768 0.32668167
-0.31026265 -1.4474871 0.5593064 -0.43284312 0.17085212 0.26358938 0.18216915 0.40036392
-0.4979728 -0.04410725 -0.6191592 -0.47986415 -0.21603242 0.06395243 0.25456053 0.29133478
-0.30637044 0.5322273 0.45196998 -0.669543 0.20063211 -0.5411026 -0.008244121 0.42965862
-0.5409909 0.7279715 -0.43714422 -0.30310106 0.019858848 -0.50039315 0.51783234 -0.68529093
0.35697109 -0.0087893475 -0.4064007 -0.02748866 0.8936278 0.20905314 -0.3958831 -0.14551161

fc1.bias f4 [128]
00000000: b238 efbc 5b6d 45be 972e a4be e162 65bd
00000010: 8a11 83be c65b 4fbd 029b a73e caa5 053d
00000020: c169 ecbe 96bc 213e 17ea bb3d 04e8 8d3e
00000030: b538 d8be c4df 89be 2798 22bf 3cd4 0d3f
00000040: 466d a6be 0c44 0f3e 5601 0b3e 2860 a4bd
00000050: 93b2 313d 998c b2bc a1d1 a6bd d259 6dbe
00000060: 274c a6be ea8b fe3c ab5a 00be 53d8 98be
00000070: 64d3 343e 95d6 393e 102a 6fbd 61a1 d7bc
00000080: adaf 143e 9156 c43e 9526 c93e 5404 45be
00000090: fd5e adbe 5b05 913d 0e35 213e 031b 283e
000000a0: 56a0 98be 9f14 2ebe cb69 bcbd 56d2 bcbd
000000b0: 7f52 f03e 9777 8a3e 5178 373e 4e1a cdbd
000000c0: 6573 0d3f e002 92be bb68 b03e 7e17 e1be
000000d0: 4edb 3ebe 3769 07bd 03be eb3e 22a0 313d
000000e0: 670f 843e 2f55 b1be db43 b63c 9d3d 093b
000000f0: 268e 923e f615 26ba 9d5f 673d 40a7 b3bd
00000100: e5a4 7cbe 27b2 adbe 957d 8e3d 2208 823e
00000110: 8a3d 86be 91b9 70bc 3d4b 84be 6945 74bd
00000120: a3e5 5f3c 6b69 14bf 718b 00be 29f4 cc3e
00000130: 13a6 7cbe 65ee 923d 0fbe 493e 5fd0 7dbb
00000140: 9e1a 89be 195f b83e f138 1a3e 8d46 033d
00000150: 01f6 553d 1a74 9d3e 9bae f238 da6c 29be
00000160: b77a 3bbe d85a a5bd 3649 27be 0615 553e
00000170: cb63 35be aa8a 553d f6aa c2bd 8184 67bd
00000180: 1ac8 d5bd 304f 6abe 9a59 a6be 65fc 8e3d
00000190: fa8c d2be 69f1 2fbe a87c 43be 642f cdbe
000001a0: 38ec bcbd 996e 583e 6911 a83b b29d 86bd
000001b0: eb0d aebd 9117 903e c9bc 2bbe 2dcd 973e
000001c0: 5f31 babc 25cb 67be dcf3 503e 8c54 7cbe
000001d0: c861 1bbc ee22 20bd 39d6 9cbe 7ac2 a0be
000001e0: cbc5 1f3e 8e88 07bf 4668 263f 8b69 31be
000001f0: 945c a3bd 9eba 44be bd82 9dbd 04b1 92bd
-0.02920184 -0.19279997 -0.32066795 -0.0560025 -0.2559932 -0.05062463 0.3273545 0.032628812
-0.46174434 0.15794596 0.091755085 0.27716076 -0.42230764 -0.26928532 -0.63513416 0.5540197
-0.32505244 0.13990802 0.13574728 -0.08026153 0.043383192 -0.021795558 -0.08145452 -0.23178795
-0.32479975 0.031072576 -0.12534587 -0.29852542 0.17658764 0.18148263 -0.058389723 -0.026322069
0.1452014 0.38347295 0.39287248 -0.19239932 -0.33861533 0.070810996 0.15742895 0.16416554
-0.29809827 -0.17000054 -0.09199866 -0.09219806 0.4693794 0.27044365 0.17916991 -0.10014783
0.55254203 -0.28517818 0.34454903 -0.43963236 -0.18638346 -0.033059325 0.46043405 0.043365605
0.25793 -0.34635302 0.022249153 0.0020941265 0.28624076 -0.000633567 0.05648767 -0.08772135
-0.24672277 -0.33924982 0.069575466 0.2539683 -0.26218826 -0.01469268 -0.25838652 -0.059636507
0.0136655895 -0.57973355 -0.12553193 0.4003003 -0.24672727 0.071743764 0.19701408 -0.0038728935
-0.2677812 0.36010054 0.15060784 0.032049704 0.05223656 0.3075264 0.00011571982 -0.1654543
-0.18308531 -0.08073968 -0.16336522 0.20808801 -0.17713849 0.052134193 -0.095052645 -0.05652285
-0.10438557 -0.2288177 -0.32490236 0.06981734 -0.41123182 -0.17181934 -0.19090521 -0.4007522
-0.09224743 0.2113594 0.0051290286 -0.06573047 -0.084987484 0.2814298 -0.16771235 0.29648724
-0.02272862 -0.22636087 0.20405525 -0.24641627 -0.009483762 -0.03909581 -0.3063219 -0.31398374
0.15602796 -0.5294274 0.6500286 -0.17325418 -0.07976642 -0.19211814 -0.07690952 -0.07162669

fc2.weight f4 [128, 128]
00000000: 360f 3f3e f164 0ebf 254a 973e 7b64 f1be
00000010: b8c4 b93e 5493 683e 0241 3ebe 6571 c73e
00000020: d924 0cbf 8bb2 bbbe 6ab3 e1bd 0d97 cbbc
00000030: 1b9d c63e 0f14 4b3e 8291 d43c d898 abbe
00000040: 44c2 b93e cc21 63be eb4f 0abf df66 323e
00000050: ce5a 2c3e e9bb aa3d e535 883d ba65 b63d
00000060: 3359 69bb a4ae 613e 9433 2e3e 28f2 22be
00000070: d743 643e 6937 d9bd f7d5 b33e 48f6 98bd
00000080: 13ba 7c3e 57a2 9ebe d603 fa3d fede 19bf
00000090: ca65 91be 475d f8bd f31e edbe 8deb 93be
000000a0: a7f3 5ebe 7f64 a83e 9c0b 23be 312e a0be
000000b0: adcd 3bbe 4469 2fbe 21c1 32bf ea25 e8be
000000c0: 6670 9cbe 1640 243c d857 ec3d 9975 19be
000000d0: e472 01bf 069b 8c3e 3936 4e3c 120c b3be
000000e0: 9e8f cd3d 56c0 5f3e 2f5f 8bbb 7766 85bb
000000f0: 5f4c 553e 018b 963d f98d 97be bb12 8fbe
00000100: ca78 f23e 2c3c 963d 4f47 61bf d8a7 99be
00000110: c7d6 17bf c9e3 323e a5c4 f9be 92f8 9bbe
00000120: 4621 73bf 4718 d7be 3bc5 11be f39f 0b3f
00000130: 4b5c 643e 0953 f0be eb1f 3d3d d5a0 6bbd
00000140: 60f0 a2bd 93f5 343d b630 093e 5773 4ebf
00000150: b723 11bd 066b 71be f5dc 60be 5233 c2be
00000160: 5926 b3be 7e3b 883e dab7 0b3e cfce bdbe
00000170: c4f8 053e 9384 c6be ab9b b4be 9f6e 523d
00000180: bd61 e73e 520d 773d fc4f 0c3f 8714 7fbc
00000190: a785 a6be c591 213e fdbb 0fbf aff6 fc3e
000001a0: 7865 aa3e f829 b1be a7a6 65bd 052e 473e
000001b0: 894a e53d 8712 0ebe 47a3 0c3e a796 93be
000001c0: 06dd fa3a c66d a73e 38a7 b2be a0a3 e83e
000001d0: 96d1 c1bd 3e84 503e abbe 873e de88 aa3e
000001e0: f0a9 1fbe 31b9 83bd 9161 0dbe 4a99 af3e
000001f0: 12ff b3be 24ff 80be f8bc 163e b066 29bd
00000200: c37a a3bd a135 53bd d805 98ba 4984 303b
00000210: 7711 033d 3901 55bd 6a4d 92bd 65bd 743d
00000220: 6a3f f4bc 84d6 a0bd f223 3f3d aa48 233d
00000230: be73 28bd 4179 00bd 5ce2 a0bd 86cd aebd
00000240: fc24 083d 9fa6 5ebd f432 6f3d b9de adbd
00000250: de8f d5bc 7776 5dbc a418 ec3c 5df2 673d
00000260: f6e1 3e3d 5e81 d13c e2d6 a6bd b686 9ebd
00000270: 20c0 bebd e999 37bc 0c43 9a3d 360c 01bd
00000280: a64c 8ebc 2284 a0bd b587 563c 71a7 133d
00000290: 94fc cdbd cc02 c6bd 0145 373d 5d77 cdbc
000002a0: ad06 99bc 22e5 f53a 8d9a 2dbd 3fd8 8ebd
000002b0: b0fa c3bd 4995 373d a95e 89bc 7a4a 8dbd
000002c0: ab35 1cbd 1d74 84bd f153 66bd 0397 b6bd
000002d0: 289f 0f3d 2466 fdbb af30 72bd 1e23 f7bc
000002e0: f100 443c 5c76 32bd b9ab c73b dece cd3b
000002f0: 3b39 8fbd da09 cc3b 61e1 41bd 3562 0e3d
00000300: 53c8 54bd 86fd 87bd 9873 0e3d a985 afbd
00000310: 036d c9bb c325 0e3d 9853 22bd 3cee 203d
00000320: 9718 633d d368 a83d 68b8 d1bc 91c1 a33d
00000330: e2b1 59bd 40ac 33bd bc4c d8bb f7f3 87bb
00000340: c433 1d3d fcb1 8d3d b01f 83bd 79dc 213d
00000350: 1f3a 7f3b 8983 143d 188a e93c 836d 07bd
00000360: d911 8fbd c4be 093d 2563 b6bd 5746 d03c
00000370: ebf8 edbd b3d1 dfbc d73d eabb 5449 5bbc
00000380: 6698 d1bb 16b0 76bc 55a8 c0bc c34b 193c
00000390: abe2 9d3d 85a0 94bd 7ae6 92bc a396 44bd
000003a0: 64e4 783d 4a39 303d e21d 09bd 1d14 39bd
000003b0: 30f1 8fbd 26a2 493d 1afd a3bc e99c 8f3d
000003c0: cb82 0b3d e028 7d3d 0fb8 513d 9d44 6bbd
000003d0: 644b e03b 353e 8dbd 7bd4 fc3c 0a34 02bc
000003e0: c1f9 cebb 5540 8ebd 882a bbbd 4596 013c
000003f0: f9f6 d1bc c497 82bb eefc 283d 8b0e 69bd
0.18658146 -0.55622774 0.29548755 -0.47146973 0.36282897 0.22712451 -0.18579486 0.389537
-0.54743725 -0.36659655 -0.11020549 -0.0248523 0.38791737 0.1983187 0.02594829 -0.33515048
0.36281025 -0.22180861 -0.54028195 0.17422055 0.16831514 0.08336622 0.066509046 0.089061216
-0.0035606145 0.22039276 0.17011863 -0.15912688 0.22291504 -0.10606272 0.3512418 -0.074688494
0.24680357 -0.3098323 0.12207763 -0.60105884 -0.2839797 -0.12127166 -0.46312675 -0.28890648
-0.21772633 0.32889172 -0.15922397 -0.3128524 -0.18340178 -0.1713 -0.6982594 -0.45341426
-0.30554503 0.010025045 0.11540192 -0.14986266 -0.50565934 0.27462023 0.01258617 -0.34970146
0.100371584 0.21850714 -0.00425329 -0.0040710527 0.20829915 0.07350732 -0.29600504 -0.27943978
0.4735778 0.073356956 -0.87999433 -0.30010867 -0.593121 0.17469706 -0.4878284 -0.30463082
-0.94972646 -0.4201071 -0.14235394 0.5454094 0.22300832 -0.4693835 0.046173017 -0.05752643
-0.07956004 0.04417951 0.13397488 -0.80644745 -0.03543445 -0.23575982 -0.21959288 -0.3792978
-0.34990194 0.2660789 0.13644353 -0.37071845 0.13083178 -0.3877302 -0.35275015 0.051375028
0.45191756 0.060315438 0.54809546 -0.015568859 -0.32523844 0.15778263 -0.5614622 0.49406955
0.3328054 -0.34602332 -0.056067135 0.19451149 0.11195857 -0.13874255 0.1373416 -0.28825876
0.0019139356 0.32700938 -0.34893203 0.45437336 -0.094638035 0.20362946 0.26512656 0.33307546
-0.1559217 -0.06431807 -0.1380675 0.34296638 -0.3515554 -0.25194657 0.14720523 -0.041357696
-0.07982399 -0.051564816 -0.0011598421 0.0026934317 0.031999078 -0.05200312 -0.07143672 0.059750933
-0.029815394 -0.078534156 0.04666514 0.03986422 -0.041126005 -0.031365637 -0.078556746 -0.08535294
0.033238396 -0.05435812 0.058398202 -0.084897466 -0.026069578 -0.013517014 0.028820343 0.05662762
0.046602212 0.025574382 -0.081464544 -0.07740538 -0.09313989 -0.011206129 0.075323194 -0.031505786
-0.017370533 -0.07837702 0.0130938785 0.036048356 -0.10057941 -0.09668502 0.04474354 -0.02508133
-0.018679941 0.0018760304 -0.04238372 -0.069748394 -0.09569299 0.044820104 -0.01676877 -0.06898971
-0.03813712 -0.06467459 -0.056232397 -0.08915522 0.035063893 -0.0077331234 -0.05912846 -0.030168112
0.011963115 -0.043569908 0.006093469 0.006280764 -0.06993338 0.0062267603 -0.04733408 0.034761626
-0.051948857 -0.06640153 0.034778208 -0.085704155 -0.0061470284 0.03470398 -0.039630502 0.039289698
0.055443373 0.08223119 -0.025600627 0.07995904 -0.053148158 -0.043865442 -0.0066009443 -0.004148956
0.038379446 0.069187135 -0.06402528 0.0395169 0.0038944555 0.036258254 0.028508231 -0.033063423
-0.06985826 0.033629194 -0.08905629 0.025424166 -0.11619743 -0.027321672 -0.007148485 -0.013384182
-0.006396341 -0.015056631 -0.023517767 0.009356442 0.07709249 -0.07257179 -0.017932165 -0.04799522
0.060764685 0.043023385 -0.033475764 -0.045185197 -0.07028425 0.049226902 -0.02001815 0.0701235
0.03406028 0.06180656 0.051200923 -0.05743848 0.0068449248 -0.06896631 0.030863037 -0.007946977
-0.006316394 -0.06945864 -0.091389716 0.007909362 -0.025630461 -0.003985377 0.041256838 -0.056898635

fc2.bias f4 [128]
00000000: 1dde 01be e169 cc3c c8f4 d23c bd8e a5bd
00000010: 36f4 b7bd aa3f 9bbd 50d6 53be d08b 353d
00000020: 0f02 8a3c a6f4 80be 0761 e9be f249 543e
00000030: f560 923c 16f5 e53d 18d7 a6be dac2 22bb
00000040: 2d64 193e 546f 6e3d 7287 963e 51a5 883e
00000050: b726 82bd 57f3 09bd 014c 92bd 6693 16bd
00000060: 779c 343a cb1f 823e 6b06 e4bd 09f6 f73c
00000070: 4e58 d6bd 864f b0bd 0245 0c3e e744 cabd
00000080: 44e8 8bbd 2d6f c5bc 0ec1 f9ba 6452 643e
00000090: c73d 11be 64b6 303e 253b 3d3d 7ad3 f1bd
000000a0: 8982 ab3c 5772 bf3c c021 8abd 8e00 283e
000000b0: 8738 b0bd b4c9 a7bc 9ffd 833c 24cb 7a3d
000000c0: f99d 5cbe 37be 82be 36e3 8dbd aaa8 4ebc
000000d0: 725e 86be f579 d7bd 6c48 1b3d 4c23 0fbe
000000e0: c7c9 9e3e c3f4 e23b f331 d2bd 7f9c 3dbe
000000f0: e0c0 04be 95d0 41bd 3bff 88bd 44b1 f1bd
00000100: b677 30be d814 e03e c20f 66be 7120 acbd
00000110: e463 49bd 64d0 94be c016 973d ae37 59ba
00000120: d159 8abc 89d5 9abd 1796 73be 83ed 553e
00000130: 545e fcbd 1258 efbc 2007 21bc f487 d3bd
00000140: 78d7 e0bd 8342 91be 9689 bc3e 5905 ab3d
00000150: ddde 343d 9366 f0bd f8c7 4d3e 015f 57be
00000160: 6380 fdbd e90a 8dbe 8a28 b1bd e204 6bbd
00000170: 12b7 e7bc 1a60 bdbd 39ad 9f3d 36b7 65bd
00000180: f387 893d a81e 9339 8c83 613e c925 11be
00000190: 4948 403e 868e 683d 72cf 263e 4960 d13d
000001a0: 2e3d 903c 0ae5 f83d 2621 ec3d c9ea 54be
000001b0: bacb 53be 86c6 89bd 7da6 55bd 4b99 39be
000001c0: a9a2 8fbe 4b09 90be 8268 1b3d 429a d23c
000001d0: bac6 8dbd 2ec4 46be 705c 153e bbbd ed3b
000001e0: 0c4d 503e dbf9 aa3e 5a45 3a3e 8225 cebd
000001f0: d8d5 00be d877 39bd 5fde 46be 6f77 e03d
-0.12682386 0.02495283 0.025751486 -0.08083866 -0.089821264 -0.07580502 -0.20687222 0.04432279
0.016846685 -0.25186652 -0.45581838 0.20731333 0.017868498 0.11228387 -0.32585979 -0.002483538
0.1497962 0.05821164 0.29400212 0.26688626 -0.063550405 -0.033679333 -0.07143403 -0.036761664
0.000688977 0.2541488 -0.11134037 0.030268686 -0.104660615 -0.08608918 0.136982 -0.09876423
-0.068314105 -0.024100864 -0.0019054727 0.22297055 -0.14183722 0.17257077 0.046198983 -0.11807914
0.020936267 0.023369951 -0.067447186 0.16406462 -0.08604532 -0.020481922 0.016112147 0.061228886
-0.21544637 -0.25535747 -0.06928103 -0.012613455 -0.2624393 -0.10521308 0.037910864 -0.13978308
0.3101332 0.0069261505 -0.10263433 -0.1851673 -0.12964201 -0.04731806 -0.06689306 -0.11801389
-0.17233166 0.43765903 -0.22466949 -0.08404625 -0.04916753 -0.2906524 0.07377386 -0.000828619
-0.01688853 -0.0756026 -0.23787723 0.20891385 -0.12322679 -0.0292168 -0.009828359 -0.103286654
-0.109785974 -0.28371057 0.3682372 0.08350629 0.04415785 -0.117383145 0.20095813 -0.21032335
-0.123780034 -0.27547386 -0.0865031 -0.057377703 -0.028285537 -0.092468455 0.077967115 -0.056082927
0.067153834 0.00028060866 0.22022837 -0.1417457 0.18777575 0.056776546 0.16290072 0.10223443
0.017607298 0.12153061 0.1152976 -0.20792688 -0.20683184 -0.067273185 -0.05216073 -0.18124883
-0.28053787 -0.2813209 0.037941463 0.025708321 -0.0692267 -0.19410774 0.14586043 0.0072552837
0.20341891 0.3339375 0.18190518 -0.10065748 -0.12581575 -0.045280308 -0.19420765 0.1096028

fc3.weight f4 [4, 128]
00000000: 0497 113e 26d3 373d af3c 233d 6c3f ebbb
00000010: 0372 afbe 915f 1c3f 1dff be3e ccc5 cbbd
00000020: c6a2 243b b143 ecbe d3b0 033f c420 ad3e
00000030: 71f3 863d 7bc5 16bd d1ff a4be 346c 663e
00000040: bb92 97be a70f 4c3d 0e9f 6a3f cf71 30bf
00000050: 8844 b5be 7569 c2be 5846 283d aa92 793d
00000060: 8a27 b7bc 78b4 633f 95fc a4be 22e3 bd3d
00000070: 74f6 313e 17b5 663d ee97 783f f5d2 adbe
00000080: 7a10 aabe 45bf 7dbe 5eac 203f 76a3 d03e
00000090: dd75 27be 4aba 56be 8129 e23e 949f 49bd
000000a0: effe d03e b0f4 783e b62a 87be cfdc 6dbe
000000b0: 9245 b93c e635 663e 0ccc d0bc dba8 a6bd
000000c0: 3b2e b1be 2305 3abf 2fa8 0d3d c893 0cbf
000000d0: b13e 00bf 978d ed3c 635e a9be fb43 9cbe
000000e0: c65f 4d3d 8bb5 48be 4fbe e23c 327b 8abe
000000f0: d5e4 b4be 4bee 63be bcd3 933d 56d1 ffbc
00000100: c06e acbe e4fa 74be a249 713d 1cd9 a43b
00000110: 6c0b 7abd 5837 15be 0873 20be 5a1b 883d
00000120: 1c76 8ebe b478 cdbe 6d86 1dbf 859a 853f
00000130: 3304 80be 8c22 c4bd 6814 483f abd4 37bd
00000140: ca25 523d e36c 1fbf c9be c7be 1009 a8be
00000150: 935d 47bd b390 41bf 8ec5 4a3f d9a1 7b3e
00000160: f888 a3be b5e7 c5be d39a 09bf 1cfc cfbe
00000170: 74fa b53e d840 773d d850 b8be a8b2 4d3d
00000180: be5f cfbe 2958 9bbe f04a f9be 78a6 06bf
00000190: fbc7 ac3d 7d52 af3c 927e 8bbe eaff 6d3e
000001a0: 860a cd3e d093 803e 72e0 753f f703 653e
000001b0: 4fba 5ebe 48ef e1be f866 993e 4dd4 d2be
000001c0: 3206 d43e cf51 4cbf c68d c6be a2cc 8e3f
000001d0: d6dc c73d 7fe5 f7be 8e43 8a3e c644 c3be
000001e0: 9f88 673f 04b3 d3be 15db 35bd d016 66bf
000001f0: 5d22 24be 6a85 7fbe 8928 8dbe b892 8abd
00000200: 17d0 a7be ab52 7b3d e3d7 423c d825 aabb
00000210: b3f7 96be 4c63 25bd ddeb c33e cdd8 13be
00000220: 54c9 6bbb ce46 40be cb7f 2a3e 07c4 2e3f
00000230: a58d 983d 158c bbbc 7147 cabe bbfe 4dbd
00000240: 44b4 a8be d7bb c43b e251 2a3f f7df 443e
00000250: b978 3fbf dc1c d6be c8b1 8c3d 0270 7b3c
00000260: e603 e33c e13b 833f 342e 8fbe 4e5a 3dbf
00000270: 0811 d3bd 6134 a73d 9f61 213f 2425 a6be
00000280: 8371 58be c8e7 c6be 59ee 5f3f fb46 c83d
00000290: 81d2 50bf 80bb dabe 2450 893f dcb4 07bd
000002a0: b75d 913e c541 2b3e ef27 a3be cf20 a2be
000002b0: 9e39 afbb 3f1c 613f 8a42 903d ba64 013c
000002c0: 201c 8fbe f516 67be a8ca 05bf a881 a1bd
000002d0: 46ee b1be 4543 283d 5b65 9abe e31a fbbe
000002e0: 49e6 b6be b60e d0be 54d9 e838 c55a 993e
000002f0: 8d31 95be 688b 0bbf 3f6f 8e3d b88f b83d
00000300: fe0e 8e3e 64b9 10bf 7e02 093e e894 2ebd
00000310: 0b6f 803d 428d bc3e 1c6a 29bf 9c9a 203c
00000320: e55e 9cbe 9106 97be e956 b9be c3d8 5b3f
00000330: 4a8b c6be 0e9b d4be 323a 133f 1a0c b93c
00000340: 661d 9e3d 8d5a 5f3e 72e0 9abd 6ae7 b5be
00000350: 3931 23be b06d 8dbd 73ef 6f3e 5293 07bf
00000360: 7bc0 acbe 16ca acbe a7e7 963d 6e82 afbe
00000370: 6352 973c 4be0 363c 3571 ecbe 48d1 883c
00000380: 902f e7bd 79e8 a0be b5f8 17bf b077 cebe
00000390: 73f9 773f bd59 883d 82fc a0be eb8a 433e
000003a0: eae6 ac3d 2559 6abf 5594 563f 30aa c7be
000003b0: 5354 afbe fe89 29bf 3c53 373f cbbc cabe
000003c0: 0b26 37be 606c debe c3f5 31bf 2ed7 46be
000003d0: b572 42bf f050 92bd 8b95 553f cc6e a7be
000003e0: be94 103f 4ae8 24bf 618f 00bf 8e2e 0dbf
000003f0: 778b 26bf df3e adbe a91d 05bf dbd2 a6be
0.14217764 0.0448791 0.039852794 -0.0071791913 -0.34266672 0.6108332 0.3730401 -0.09949836
0.0025121435 -0.46145394 0.5144169 0.3381406 0.065894015 -0.036809426 -0.32226422 0.22502214
-0.29604134 0.049819615 0.9164895 -0.6892366 -0.35403848 -0.37971082 0.04108271 0.060930885
-0.02235772 0.8894725 -0.32223955 0.09271838 0.1737917 0.056325044 0.97106826 -0.3395001
-0.33215696 -0.24779995 0.6276301 0.4074971 -0.16353555 -0.20969501 0.4417229 -0.04922445
0.408195 0.24312091 -0.26399773 -0.23228763 0.022616182 0.22481498 -0.025487922 -0.081376754
-0.34605584 -0.7266409 0.03458422 -0.54912996 -0.5009566 0.02899818 -0.33079824 -0.30520615
0.050140165 -0.19600503 0.027678637 -0.27047116 -0.35330835 -0.2225887 0.072181195 -0.031227749
-0.33678246 -0.23923832 0.058908112 0.0050307643 -0.06104605 -0.14571893 -0.15668881 0.06645842
-0.27824485 -0.40131152 -0.6153324 1.0437781 -0.25003204 -0.09576902 0.7815614 -0.04488055
0.05130557 -0.6227552 -0.39012745 -0.32819414 -0.048673224 -0.7561142 0.79207695 0.24573459
-0.31940436 -0.3865334 -0.5375187 -0.40622032 0.35542643 0.060364574 -0.3599918 0.050219208
-0.40502733 -0.30340698 -0.48689985 -0.5259776 0.08436581 0.021401638 -0.27245003 0.23242155
0.4004709 0.25112772 0.960456 0.22364794 -0.21750759 -0.4412787 0.2996137 -0.41177598
0.41410977 -0.7981233 -0.3878004 1.1156199 0.09758918 -0.4841728 0.27004665 -0.38138407
0.9044284 -0.41347516 -0.044398386 -0.8987856 -0.16028734 -0.24953237 -0.27569988 -0.06766266
-0.32775947 0.061358135 0.011892292 -0.0051924996 -0.29485855 -0.0403779 0.38265887 -0.14438172
-0.0035978155 -0.1877701 0.16650312 0.68267864 0.074488916 -0.022893945 -0.3950763 -0.050291758
-0.32950032 0.0060038376 0.66531193 0.19226061 -0.74793583 -0.41818893 0.068698466 0.015346529
0.02771182 1.0252649 -0.27964938 -0.7396592 -0.10305983 0.08164287 0.6303958 -0.3245021
-0.21137051 -0.3884871 0.87473065 0.097791635 -0.81571203 -0.42721176 1.0727582 -0.033131465
0.2839181 0.16724308 -0.31866404 -0.31665656 -0.0053474447 0.87933725 0.07043941 0.00789755
-0.27951145 -0.22567351 -0.52262354 -0.07886058 -0.347521 0.04107978 -0.30155453 -0.4904395
-0.3572257 -0.40636224 0.000111031026 0.29952064 -0.29139367 -0.5450959 0.06954812 0.09011787
0.27745813 -0.56532884 0.13379857 -0.042622477 0.0627118 0.3682652 -0.66177535 0.009802487
-0.3054115 -0.29497197 -0.3619912 0.8587763 -0.38778144 -0.41524547 0.57510674 0.022588778
0.07720451 0.21811886 -0.07562341 -0.35528117 -0.15936746 -0.06905687 0.23431186 -0.5295917
-0.337406 -0.3374793 0.07368403 -0.34279197 0.018471902 0.011161874 -0.4618012 0.016701356
-0.11288369 -0.31427363 -0.5936387 -0.4032569 0.96865004 0.06657741 -0.31442648 0.19095962
0.08442481 -0.91542274 0.83820087 -0.3899703 -0.34244022 -0.66226184 0.7161138 -0.39597163
-0.17885606 -0.4344206 -0.6951563 -0.19418022 -0.7595628 -0.07144344 0.8343131 -0.3270172
0.5647696 -0.64416945 -0.5021878 -0.5514916 -0.65056556 -0.3383703 -0.5199838 -0.32582745

fc3.bias f4 [4]
00000000: e14d dcb8 a478 9cbd 2bcd 0b3e d98d 7ebe
-0.000105049236 -0.07640198 0.13652484 -0.24858798
