checkpoints/checkpoint-250.pth (torch, 75406 bytes, 6 tensors)

fc1.weight f4 [128, 8]
000000 29 e1 4c 3d 85 7a 80 bd 33 54 d5 bf 0a 57 5e bf
       0.050019417 -0.06273369 -1.666632 -0.8685156
000010 55 c3 d6 be 9c f1 c8 3d 38 bd 83 bd b8 66 27 3d
       -0.41945902 0.09811708 -0.06432575 0.040869445
000020 7e 2a a8 3d c4 aa ad bd 0b 05 0f 3e bd 70 b8 be
       0.0821123 -0.084798366 0.13966767 -0.36023512
000030 f8 0e 02 bf 2e b0 43 bf a0 27 22 bf c6 c2 cd 3e
       -0.5080409 -0.76440704 -0.6334171 0.40187663
000040 7a 5f f5 bd e6 e3 28 bd 10 47 e5 be b8 4e d9 be
       -0.11981101 -0.041232966 -0.4478078 -0.4244287
000050 0d 4a 97 3e 43 ef ef 3e 4a 08 a9 3d 5e 2d 07 3f
       0.29548684 0.4686223 0.08253534 0.528036
000060 5d ca 18 be 6c 3c 45 be 01 78 2f 3f 97 6b 34 bf
       -0.14920945 -0.1926133 0.68542486 -0.7047667
000070 2a 0d 4c bf d2 f9 d0 bd 28 64 cf bd 65 18 34 3e
       -0.79707587 -0.102038994 -0.10126525 0.17587431
000080 d2 2f 3f bf 03 bb 35 bf 18 60 b5 be 8b 08 1c bf
       -0.74682343 -0.7098848 -0.35424876 -0.60950536
000090 f2 fa 6b bd df e8 92 bc d7 9f 8d 3e 3e 84 2f 3e
       -0.057612367 -0.017933307 0.2766101 0.1714029
0000a0 6b ee f5 3c 31 c3 68 bf f0 ce 2e 3e 2f 45 59 bf
       0.030020913 -0.9092284 0.17071128 -0.8487119
0000b0 7b f6 ee be 6e 1f 8a be 1a 72 b2 3c 69 55 3a be
       -0.46672425 -0.26977104 0.021782923 -0.18196644
0000c0 1a 20 ae be ca ba 15 bf a7 b8 07 3f a0 80 ed 3e
       -0.34008867 -0.5848814 0.5301613 0.46387196
0000d0 81 51 40 3e 91 77 a3 be fc 12 0c 3f 57 5c b3 3d
       0.18781091 -0.3192716 0.5471647 0.08757847
0000e0 f4 c0 1f 3e 14 4f c9 bf ba e0 9a be cd 25 a2 be
       0.1560095 -1.5727258 -0.30249578 -0.31669465
0000f0 83 58 c9 3e c3 a7 78 3e 49 af 15 3d 9e d3 8a 3e
       0.39325342 0.24282746 0.036544118 0.27114576
000100 dd 86 ca 3e db 40 8f bd ce 62 b7 3e 3e 4c 7e be
       0.39556018 -0.06994792 0.3581757 -0.24833772
000110 c8 ac 04 3e 16 bb 2c 3f a9 c4 bf bd 5f 87 de be
       0.12956536 0.6747297 -0.09363682 -0.43462655
000120 0b f7 cd 3e f6 a4 a5 3d 1c 28 37 3e f1 8f cd 3e
       0.4022754 0.080881044 0.17886394 0.4014888
000130 6a ea 12 be 2d a4 0c bf 46 75 e8 3d 4c 82 04 bf
       -0.14347234 -0.5493801 0.11350493 -0.5176132
000140 80 79 a6 be 5a 73 39 3f ef ae 4b 3f 04 78 18 bf
       -0.32514572 0.7244164 0.795638 -0.5955813
000150 60 35 55 3e 3b b7 bb bc 4a 63 8b 3d 45 33 87 3d
       0.20821142 -0.02291452 0.06806047 0.06601576
000160 36 45 48 3e 9e c5 eb bd 86 9f 92 3e 0d 03 f3 be
       0.19557652 -0.11512302 0.28637332 -0.47463265
000170 f4 14 de 3e d0 98 f6 3e d3 6b 82 be 90 ad 16 bd
       0.4337536 0.48163462 -0.25472888 -0.036786616
000180 f4 bd 9b 3e b1 df 4c be 20 32 bd be d2 a5 89 be
       0.3041836 -0.20007206 -0.36952305 -0.26884323
000190 1a 0d 0b 3f b7 9c 2f 3f b0 1b 51 bf 83 37 e2 3d
       0.54316866 0.685985 -0.8168287 0.11045744
0001a0 15 83 34 be e0 42 8b 3e 9a dc b1 be 29 f0 5c bf
       -0.17628129 0.2719946 -0.34738618 -0.86303955
0001b0 b9 ac b2 3e ee 02 cd 3c 2f f5 0c be bd b2 c8 3e
       0.34897402 0.025025811 -0.13765405 0.39198866
0001c0 97 10 c7 bd fa 28 26 3f 52 07 b5 3e 97 e1 54 bf
       -0.09719961 0.64906275 0.35357147 -0.8315672
0001d0 32 19 83 be b7 38 65 be 2a ba 87 3e 79 b4 9d bd
       -0.2560516 -0.22384916 0.2650922 -0.07700438
0001e0 e2 3b 33 3e 97 2f ab bd f9 57 31 be 91 10 34 bd
       0.17503312 -0.083586864 -0.17318715 -0.04396111
0001f0 7e c3 45 be d2 a2 52 bf f9 fb b7 be bd 76 07 be
       -0.19312856 -0.82279694 -0.35934427 -0.13228889
000200 de 20 52 bf 3c 3d d3 be 0a c4 d9 be 20 18 6f be
       -0.820814 -0.41257656 -0.42532378 -0.23349047
000210 b7 94 5e be 86 20 96 bd bd b2 d5 3e 28 97 f7 3d
       -0.21736418 -0.07330422 0.4173793 0.12089378
000220 64 4c 4f be 02 3f ff bd 88 1b a1 be ad 7a 40 3e
       -0.20243984 -0.1246319 -0.31466317 0.18796797
000230 cd 2f 40 3f 94 d6 be 3e 10 e2 fa 3e 22 87 70 3d
       0.7507294 0.37273085 0.49000597 0.058722623
000240 da bc dc bd 4e be 59 3e 8e 5b 09 be 8b 8e 82 be
       -0.10778208 0.21264002 -0.13413832 -0.25499377
000250 1d 5f 9a be fc cb 4b bf 79 64 11 bf e8 3e 82 bd
       -0.3015069 -0.7960813 -0.56793934 -0.06359655
000260 58 6c ae be 52 db 15 3f 8c 32 6b 3f bc 1b 2f be
       -0.34067035 0.5853778 0.91874003 -0.17100424
000270 a7 bf ea 3e 83 e7 5e be 1d f2 04 3e 90 ad 53 bf
       0.45849344 -0.21768002 0.12982984 -0.8268671
000280 3c 4e 52 3d 15 a7 d1 bd b7 82 bb bf 42 a1 9b bf
       0.05134414 -0.102369465 -1.4649266 -1.2158587
000290 c5 99 8e bb 88 28 55 be d6 a4 9c 3d 07 0d 88 bd
       -0.004351827 -0.20816243 0.076486275 -0.0664311
0002a0 6a 8c 10 be 44 2f e2 bd 46 79 56 3f 18 82 32 bf
       -0.14116064 -0.110441715 0.837788 -0.6972976
0002b0 ad cc 80 3e 4e 3a 95 3e fd 3e 82 be c2 b1 b3 3e
       0.25156155 0.29146045 -0.2543868 0.35096556
0002c0 74 47 84 3d a8 ec 2c bf 0b 99 f9 3e a3 b7 97 bf
       0.06458941 -0.6754861 0.48749575 -1.1852916
0002d0 6e 3c 45 bd 9e af 70 be 03 2b c2 3d e2 1b 91 3c
       -0.048153333 -0.23504493 0.0948086 0.01771349
0002e0 09 2d a7 3d 58 11 82 bd 7d f3 ec be 3f d9 cd be
       0.08162887 -0.06350964 -0.46279517 -0.40204808
0002f0 18 53 5a bf 6d 0a aa 3e 79 a0 95 3e 82 35 e8 3e
       -0.8528304 0.3321108 0.29223993 0.45353323
000300 da 75 da be b3 91 70 bf 2b 37 65 be 62 00 32 bf
       -0.4266804 -0.9397232 -0.22384326 -0.69531834
000310 4f aa ca be d8 15 fa 3d b8 50 86 be ff 7e 34 bf
       -0.3958306 0.122111976 -0.2623346 -0.7050628
000320 f4 a7 ae 3d 7b aa d8 bb a1 9c 2c bf 68 93 83 bf
       0.08528128 -0.0066121197 -0.67426497 -1.027936
000330 ea 26 21 bf d8 05 c2 3e e7 bb 5f be dd 93 16 3e
       -0.62950003 0.37895083 -0.21849023 0.14704843
000340 f6 da e9 3e ed 95 31 bf bb 50 59 3e 46 f3 2c bf
       0.45674866 -0.69369394 0.21222202 -0.67558706
000350 c0 59 de 3c 89 ac 0a bd c2 ce 4f 3e 1d fb 70 3d
       0.027142406 -0.03385595 0.20293716 0.05883323
000360 0c 0f 48 bd 5d 11 80 bf cb d7 b9 bc c0 3e 46 bf
       -0.048842475 -1.0005299 -0.022685906 -0.774395
000370 eb 6f 89 3e 24 54 bc 3e 63 cd ed 3d 36 d1 8d 3e
       0.268432 0.36782944 0.1161144 0.27698678
000380 83 42 14 bf 8d 78 f3 3e c9 b4 3a bf 5d c1 3f 3f
       -0.5791399 0.4755291 -0.72932106 0.74904424
000390 c6 04 ed 3c a8 56 49 3e 0e 4e 75 be 8c ca 73 3e
       0.02893294 0.19661963 -0.23955557 0.23807734
0003a0 d3 ee 86 3d c0 2e 15 3f f2 d4 dd 3e 90 39 04 bf
       0.06588521 0.5827446 0.43326527 -0.51650333
0003b0 27 ab 59 3e 1c f4 15 be 36 3a d1 3c e5 25 68 be
       0.21256696 -0.14643902 0.025540452 -0.22670706
0003c0 be 32 08 3f c1 18 ad 3e 0c ad 21 bd a4 87 18 3f
       0.53202426 0.33807948 -0.03947167 0.5958197
0003d0 5a 69 73 3f b0 69 18 be ec 58 45 3e 00 24 c9 be
       0.9508263 -0.14884067 0.19272202 -0.39285278
0003e0 a3 7f 56 3e 56 f7 ac bd 38 5c 1a be cf 8c c1 bd
       0.20947127 -0.08445613 -0.15074241 -0.09450685
0003f0 ad 5b af 3f f5 b8 07 3e 32 15 c8 be cd 28 b8 3d
       1.3699852 0.1325415 -0.3907867 0.08992157

fc1.bias f4 [128]
000000 53 23 b9 bc d0 17 92 be 34 93 86 be d0 17 59 3d
       -0.022599852 -0.28533792 -0.26284182 0.053001225
000010 cd 65 eb bd c4 e8 a8 3d 04 c0 d7 3e 5b b7 75 3e
       -0.11494026 0.082475215 0.42138684 0.23995726
000020 37 89 be 3d ee b0 db 3d ac 44 cc 3c 0e 6d a9 3e
       0.093035154 0.10727106 0.024935089 0.33091015
000030 89 41 fd be 8b 95 cc 3d ee a7 88 bd e4 35 90 3e
       -0.49464062 0.099894606 -0.06672655 0.28166115
000040 77 74 59 bd 22 44 8f 3e 8f 24 80 bc 43 d2 90 be
       -0.053089585 0.2798167 -0.015642432 -0.28285417
000050 e3 c2 42 3d 24 2b 9a 3d 5e e1 b1 bc 5a 86 3a 3d
       0.04754914 0.0752776 -0.021713909 0.045538284
000060 d2 d2 87 be 96 e3 f0 bd 28 c9 e8 bd ff 72 2e be
       -0.2652803 -0.117621586 -0.113664925 -0.17036055
000070 51 7e f5 bd d1 9f 0c 3f d3 5d ca bd 22 2a ef 3c
       -0.119869836 0.5493136 -0.09881177 0.029194895
000080 04 58 88 3e 12 12 4d 3e 9f 9e be 3e f6 d1 15 3e
       0.2662965 0.20026425 0.37230393 0.14630875
000090 2e 7e b0 3d 4d 15 bb 3d 81 e3 2e 3e 38 7b d9 3e
       0.08617817 0.09134922 0.17078973 0.4247682
0000a0 6a c7 77 bd de 15 29 be 6f 70 24 3d bc 97 4f be
       -0.06049291 -0.16512248 0.040146288 -0.20272726
0000b0 d6 87 dc 3e 76 d6 84 3e b1 ff 88 3e 73 62 d2 3d
       0.43072385 0.2594487 0.26757577 0.10272684
0000c0 22 d8 2c 3f 50 f2 e7 bd af 79 53 3e c5 19 02 be
       0.6751729 -0.11325514 0.20651887 -0.12705143
0000d0 9e 7b 96 be 8a 49 ee bd cb c7 cf 3e f8 78 85 bd
       -0.29391187 -0.1163512 0.40582117 -0.065172136
0000e0 e9 e8 ea 3d 95 21 c6 be 1b 81 d3 bc a1 37 c8 bc
       0.11470205 -0.38697496 -0.025818398 -0.024440588
0000f0 8f 04 06 3e 2a 2a ef 3d 83 9a 89 3e 07 68 6d 3b
       0.13087676 0.11677964 0.26875696 0.0036225335
000100 b6 72 61 bc 75 e0 04 be 7e a4 90 3b 5e d5 9a 3e
       -0.013760259 -0.12976249 0.0044141402 0.3024091
000110 98 03 df 3c 3c 47 e5 3d 6f 94 89 3e f6 8a 44 bd
       0.027223393 0.111952275 0.26871058 -0.047984086
000120 23 7d 01 3e a6 46 07 3e ae f6 d4 bd bd 9e 54 3e
       0.12645392 0.13210544 -0.10398613 0.20763679
000130 fc a6 9f 3c 33 32 59 3d 6d 43 f2 3d aa 9a 9f 3e
       0.019488804 0.05302639 0.11829267 0.31172687
000140 fe 0a 28 be 39 4a 74 3e 5e b3 8b 3d ef 66 d8 3c
       -0.16410443 0.23856439 0.06821321 0.02641627
000150 bf 98 46 3e 98 56 19 3e 6f 14 fa 3a 12 26 01 be
       0.19394206 0.14974439 0.0019079576 -0.12612179
000160 b7 61 b9 3c 06 e7 4f 3e ee 7b 42 be 7a 42 73 3e
       0.022629602 0.20302972 -0.18992588 0.23755828
000170 e4 6d 81 3d 1c cd ae bd 87 a3 3e 3d 40 cf d9 3d
       0.06319788 -0.08535215 0.04654267 0.10635233
000180 3f 85 c9 bc d7 42 41 bd 00 5d 35 be bd 5c eb bc
       -0.02459967 -0.047182884 -0.17711258 -0.028730744
000190 53 20 72 be 27 bf ab 3d dd 1f c5 3e f5 c1 ac bd
       -0.23645143 0.08386069 0.38500872 -0.08435432
0001a0 bf b3 06 3e de 47 0e 3e d8 69 94 be f9 21 aa 3c
       0.13154505 0.13894603 -0.28987002 0.020768153
0001b0 7a 5c 4e 3e 31 10 95 3e 54 ff 45 3e 79 86 63 3e
       0.20152465 0.29113916 0.19335681 0.22219266
0001c0 2e ef d7 3d 16 7f 84 be 61 c5 99 3e 17 76 30 3b
       0.10543667 -0.2587821 0.300334 0.0026925856
0001d0 d8 c5 1c 3c 07 6c 1f 3d fe 73 b9 be 99 f9 8d bd
       0.009568654 0.038921382 -0.36221308 -0.069323726
0001e0 fd c2 cd 3e d8 f1 ca be 96 70 b1 3c c2 7e 9b bd
       0.40187827 -0.39637637 0.02166013 -0.075925365
0001f0 4c 70 36 ba 66 31 de be b3 59 58 bd 4d 48 e2 be
       -0.00069594826 -0.43397063 -0.05281992 -0.44195786

fc2.weight f4 [128, 128]
000000 7f 8d c4 be 30 23 8b 3e 87 a9 61 3e bb 4b e1 bd
       -0.38389203 0.27175283 0.22037326 -0.110007726
000010 49 77 50 3e 5d 16 0f 3e e9 08 d2 be 8e 32 b0 3d
       0.20358004 0.13973375 -0.41022423 0.086033925
000020 e2 e7 21 3e bf c0 a1 3e 5a 67 0d be 6a a9 e6 3e
       0.15811113 0.31592366 -0.13808957 0.45051128
000030 3c 5d eb bd 3b 2e 37 3c c4 3b 06 3e 0a 2f 43 3e
       -0.114923924 0.011180456 0.13108736 0.19060913
000040 c7 30 8f 3e ab 1b c3 3d 76 39 8e 3e 77 19 ed be
       0.27966902 0.095267616 0.27778214 -0.4630849
000050 77 c6 1a be 8a 79 88 bd 7c c8 41 bd 36 48 47 be
       -0.15114771 -0.06663807 -0.047310337 -0.1946114
000060 d6 63 db 3e 41 a8 ac be db 94 11 3f 17 24 92 3d
       0.42849606 -0.33722118 0.5686776 0.0713579
000070 f7 fc 9c bd 52 a3 21 bd 57 e0 80 be dd 8b aa be
       -0.07665437 -0.039462395 -0.25171158 -0.33309832
000080 8c 63 72 bd 5a 27 a3 bd e7 94 42 3e 0c 3f 11 3d
       -0.059176967 -0.0796649 0.19002114 0.035460517
000090 70 d1 c8 3e b4 94 a9 3d 9e bc be 3e e6 19 41 bd
       0.39222288 0.08280316 0.37253278 -0.04714384
0000a0 00 6b 70 3e 11 2e 66 3e d6 9b e7 3d ab ba d9 3e
       0.23478317 0.2247851 0.1130902 0.4252523
0000b0 6b 3d dd bd 10 64 25 3e ce 9a 26 3e 62 61 ae 3e
       -0.1080273 0.16151452 0.16269991 0.34058672
0000c0 3b e7 a0 bd 9e e2 f8 3d ba a5 84 3e 1d e1 b5 be
       -0.07856604 0.12152599 0.2590769 -0.3552331
0000d0 d3 f5 99 3e a1 b5 bf 3e a1 ac 16 3a 20 ca 26 bf
       0.30070361 0.3744326 0.00057477696 -0.6515217
0000e0 dc 08 15 3d b7 09 78 3d ec 1a b3 3d cc e9 50 be
       0.036385402 0.06055614 0.08745369 -0.20401686
0000f0 c2 f7 2e 3e 08 f9 4a 3b 89 7e 27 3d 36 43 e0 3d
       0.170867 0.0030971188 0.040892158 0.109503195
000100 e2 d1 85 3e c8 f4 77 3e ae 5c 8e 3e a3 78 42 3e
       0.2613669 0.2421447 0.27805084 0.18991332
000110 6e 01 21 bf 57 1d 98 bc 69 5c 1c 3e ab d5 94 3e
       -0.62892807 -0.018568678 0.15269627 0.29069266
000120 ea 7c 94 3e cb 81 d5 3e 67 b9 34 be 51 de bf 3e
       0.29001552 0.41700587 -0.1764885 0.374743
000130 73 19 0f be df 26 1e 3d d9 b7 2a 3e f5 45 e6 3d
       -0.13974552 0.03861129 0.16671695 0.11243812
000140 eb 42 11 be 89 1f 78 be d6 39 15 bf 4e 4e 9e bf
       -0.14185683 -0.2423078 -0.58291376 -1.2367647
000150 d5 45 4c 3e 45 a9 85 3e 86 8f 08 3f d5 02 00 3f
       0.19948514 0.26105705 0.53344 0.5000432
000160 3f a4 59 bf ef 02 41 3e 3e 7f ad 3d 15 bc 1f bf
       -0.85016245 0.18848775 0.08471535 -0.62396365
000170 8b f9 46 3d b6 ec ac be f1 26 53 3e b0 ed 3a 3e
       0.048577826 -0.33774346 0.20620324 0.18254733
000180 b4 ba c9 3e cd 12 51 3e 58 e8 e4 3e 6f 55 6f 3e
       0.39400256 0.20417328 0.44708514 0.23372434
000190 63 fe 01 bc c2 18 05 bf 00 c5 fc 3d 3f 2e 86 3c
       -0.007934186 -0.519909 0.12342262 0.016379474
0001a0 b3 63 bd bd c2 7c 9a 3e 83 bd f5 3e b1 8a 84 3d
       -0.09247532 0.30173308 0.47996148 0.06471766
0001b0 2e 50 a3 bd e9 0e 0b 3e 13 e1 af 3e 88 f2 b1 3e
       -0.079742774 0.13579907 0.34351406 0.3475535
0001c0 9d 0b 37 3e be 1a 37 3e ed 8b 02 3e 7b cf 0a bf
       0.17875524 0.17881295 0.1274869 -0.5422284
0001d0 e2 3d d6 3c f5 9e 8e 3d 95 d0 5f bf 87 8b 27 3f
       0.026152555 0.069639124 -0.87427646 0.65447277
0001e0 fa 9d 19 3c 0e 4a 62 3e 2f c5 6d 3d 14 65 1a 3e
       0.009376043 0.22098562 0.058049377 0.1507762
0001f0 df d6 4c 3e 84 c9 2c bf b2 fb f2 3d 8c 53 25 3f
       0.20003842 -0.6749499 0.11864413 0.6458061
000200 40 d4 8b 3d ee 58 17 3e 8c 71 0e 3e e6 17 26 be
       0.06827593 0.14780018 0.13910502 -0.16220054
000210 f2 1a 92 3e 8d e3 ca bd d5 95 c0 be 37 96 7e 3e
       0.28536183 -0.09906683 -0.37614313 0.2486199
000220 33 c2 2f be 24 ff e7 3d 45 43 55 be 4f 85 a7 3d
       -0.17163925 0.11327961 -0.20826443 0.081797235
000230 4d 16 b4 bc e1 c0 c7 3e 95 98 8e 3d fb b3 c1 bc
       -0.02198329 0.39014342 0.069626965 -0.023645392
000240 18 28 1c 3e 79 67 85 3c cc 23 f8 3d 55 c7 00 bf
       0.1524967 0.016284691 0.12116203 -0.50304157
000250 64 3d b7 3e 72 c6 46 bd 5f ad 45 bc 49 c0 38 be
       0.35789025 -0.048529096 -0.012065261 -0.18042101
000260 9d 01 e2 3e 5d 0a 05 be 19 f9 2e 3f 0c bb 77 3e
       0.44141856 -0.12992235 0.6834884 0.24192446
000270 cc a1 62 3e ae bf 98 3a 53 45 23 3f cf 62 37 3e
       0.22132033 0.0011653805 0.63777655 0.17908786
000280 62 0f 51 3d 31 42 fe be 01 7b dd 3e be 2f ff 3d
       0.05104006 -0.49659875 0.43257907 0.12460278
000290 ce de a6 3e 25 9c a2 3d 91 08 2c 3e 4a be 04 bf
       0.3259186 0.079399385 0.16800143 -0.5185286
0002a0 3b fc 76 3e 0b a9 84 3e e9 38 86 bc 05 f4 c1 3e
       0.24119656 0.2591022 -0.016384559 0.37881485
0002b0 a9 0e 01 bf 0e 02 7b 3e 73 cb 8b bd 0a ab cc 3c
       -0.50412995 0.24512503 -0.06825914 0.024983902
0002c0 f7 50 cd be da c4 e4 3d a7 f1 6f 3d 6f ef 79 bc
       -0.40100834 0.11170359 0.058580067 -0.015254839
0002d0 63 d7 b5 bd 12 71 1d 3f b2 1c 03 3e 8c 72 da be
       -0.088789724 0.61500657 0.12803915 -0.42665517
0002e0 74 d0 f8 bb 9b a3 87 3e 9b e5 b8 3d 97 de 7f be
       -0.007593209 0.2649201 0.09028169 -0.24987255
0002f0 8a 82 28 3d 09 c0 12 bd f2 79 84 be eb ff 46 3e
       0.041140117 -0.03582767 -0.25874287 0.19433562
000300 76 91 b2 3c fd f0 f5 3d 00 e1 31 3c cc 5c 22 bd
       0.021797877 0.120088555 0.010856867 -0.03963928
000310 b8 86 35 bf be d9 c3 bd 2b 09 8a bd f1 ff 0d 3d
       -0.7090869 -0.095630154 -0.0674003 0.034667913
000320 2b 9c 11 3e 05 cc da 3e 6b 58 d0 be a3 b3 01 3e
       0.1421973 0.4273378 -0.40692458 0.12666182
000330 15 2b 4b 3d e4 2f dd bd 4f 5e e8 bc 5b f5 2b bc
       0.049601633 -0.1080015 -0.028365282 -0.010495509
000340 93 b1 81 be 61 7a 38 bd 06 6a 39 be 3a d3 02 c0
       -0.2533079 -0.045038585 -0.18106851 -2.0441422
000350 c6 82 af bd d3 60 1f 3e d7 99 79 be c0 7a c9 3e
       -0.08569865 0.1556428 -0.24375091 0.39351463
000360 6f e4 68 bf 31 ce 7a 3e ed e7 8d 3e 1c 39 20 bf
       -0.9097356 0.24492718 0.27716008 -0.6258714
000370 0f d5 a2 bd bb 87 b6 be e6 61 8c be a7 9f e9 3d
       -0.07950794 -0.3565043 -0.2741844 0.114074044
000380 4b bf 88 3e e3 2b 9b 3e 8a d2 e6 3e f3 ec 4b bd
       0.26708445 0.3030692 0.45082504 -0.04978652
000390 04 2a 20 3e d2 ac 28 bf cd ba 1a 3e d8 22 36 3e
       0.15641028 -0.658887 0.15110321 0.1778673
0003a0 21 73 0d 3e 07 18 29 3f cb 5c cf 3d ab 91 19 be
       0.1381345 0.6605229 0.10125121 -0.14996974
0003b0 09 7a 04 be b8 d4 73 3c c3 3e 08 3f 0e ff 45 3d
       -0.12937178 0.014882259 0.53220767 0.048338942
0003c0 a9 54 0a 3e 38 4f db 3d fc 30 ae bc 89 4c 1b be
       0.13508858 0.10708469 -0.021263592 -0.15165915
0003d0 94 a7 06 be 03 b4 3f bd 92 72 e6 3d 28 8a 76 3e
       -0.13149863 -0.046802532 0.11252321 0.2407614
0003e0 f0 b5 04 be 84 61 2b be de f1 df 3e 20 89 63 3e
       -0.12960029 -0.16736418 0.43739218 0.22220278
0003f0 cc d3 b5 bd ca af 8a be 95 d9 21 3b 0c 8f 88 3e
       -0.08878288 -0.2708724 0.002469634 0.26671636

fc2.bias f4 [128]
000000 a5 e8 82 bd d1 85 06 be 73 49 fb 3b 22 88 bf bd
       -0.0639203 -0.13136984 0.007668668 -0.09352137
000010 0a 5d 1e be 6c 4b 9b 3e 4b 47 ac be 53 e2 5a 3c
       -0.15465179 0.3033098 -0.33648142 0.013359624
000020 b4 6a b5 3e ce 28 97 3b c0 a4 91 be bd 50 8c 3d
       0.3543297 0.0046130186 -0.28446007 0.06851337
000030 e8 7a 2d 3c 9d 5c b7 bd 2c 78 22 3d c4 7c a1 3e
       0.010588385 -0.089532115 0.039665386 0.315405
000040 ec df b3 3d 3e 2b a2 3d 77 1c 8c 3d 14 35 52 3e
       0.08782944 0.07918404 0.06841367 0.2052806
000050 50 34 f9 3d 34 0b a3 bd 4c 2c b0 3d 49 a4 9d bc
       0.12168181 -0.07961121 0.08602199 -0.019243376
000060 e0 c5 80 3e df 40 41 3e 13 e9 24 3d 06 af 62 3d
       0.25150967 0.18872403 0.04026134 0.055342697
000070 e2 fd b9 bc 8f 9e dd 3e 58 46 c3 3e 0a df 88 bd
       -0.022704069 0.43285033 0.38139606 -0.06683166
000080 fa 53 47 3e 89 c4 0b bd ba c5 80 3d ee 7f 97 3d
       0.19465628 -0.034122977 0.06287713 0.073974475
000090 68 46 23 bd 3d b7 03 3e e7 e1 bb be 94 e0 c4 bd
       -0.039862067 0.12862869 -0.36695787 -0.096131474
0000a0 3f 7e d8 bd 80 94 68 3c 80 66 7f bd b1 75 6f 3d
       -0.105709545 0.014195561 -0.06235361 0.05846185
0000b0 26 f1 cf bd 25 4e 6f be 56 a7 f4 3e 2e 03 5b 3d
       -0.10153417 -0.23369654 0.47783917 0.05346983
0000c0 9c 64 8f bd b8 7e 0a 3c 26 9f d5 3d 06 28 72 bd
       -0.070016116 0.008453064 0.10430746 -0.0591202
0000d0 e7 d8 df 3d 93 1c 06 be 8e 12 08 3d 56 d6 59 bd
       0.10930043 -0.13096838 0.03322082 -0.053182922
0000e0 6b a4 25 3e 35 55 fd bc 72 62 f8 bd 6e 48 a6 3d
       0.16176002 -0.030924419 -0.12128152 0.081192836
0000f0 6f 84 91 bd f1 ce e4 3d dd 1d 90 bd aa 67 8b be
       -0.07105338 0.111722834 -0.07036946 -0.27227527
000100 56 42 bf bd 6a 0b b3 3c 31 81 ee 3d 53 da 1f be
       -0.093388245 0.021856029 0.11645735 -0.15610628
000110 9a 94 a0 bd f1 58 c0 3e 14 65 46 3d 9b 52 5f bb
       -0.078408435 0.37567857 0.04843624 -0.0034076336
000120 00 41 ef bc 7c 4b d3 bd cb ef ab ba 19 38 07 3d
       -0.0292058 -0.10317132 -0.0013117729 0.033012483
000130 d9 b8 02 be ee ae f3 bd ea fd dc 3e b9 02 e8 3c
       -0.12765826 -0.118985996 0.4316247 0.02832161
000140 d2 4e cf bd 9e 96 b0 3d 32 ba ef bc 11 be fe bb
       -0.10122456 0.08622478 -0.02926359 -0.0077741225
000150 52 5c 83 be 21 c0 29 3e 09 a7 71 3e b6 e6 91 3e
       -0.25656372 0.16577198 0.23598875 0.2849633
000160 bd d2 d8 bd e5 1e 80 3b 13 69 18 3e 62 e6 c8 bd
       -0.1058707 0.003909933 0.14883833 -0.09809567
000170 db 27 92 3e 18 39 d2 bd d2 cf 36 3d a1 2c b1 be
       0.28546032 -0.10264796 0.044631787 -0.34604362
000180 04 8f 9d 3c eb d8 4a 3d 7e e3 6c 3e fa 3e 55 be
       0.019233234 0.049523275 0.23133656 -0.20824805
000190 aa 51 f7 3d 87 c6 91 3d 18 78 a5 3d 34 1b 1d be
       0.12076123 0.07117944 0.08079547 -0.15342408
0001a0 c8 03 39 be 00 f0 98 3e e2 58 a1 3e f6 54 bf bd
       -0.18067849 0.29870605 0.31513125 -0.09342377
0001b0 8b a3 1c 3e 29 a6 3c be 5b 53 80 3e 24 83 91 3d
       0.15296762 -0.1842276 0.25063595 0.07105091
0001c0 e8 1e f6 3d 5a b3 28 be a0 59 22 3d f2 6b b5 b9
       0.12017614 -0.16474667 0.039636254 -0.00034603436
0001d0 c8 f1 01 3e 5c 01 d9 bd 56 4a 09 3d c2 31 1d 3d
       0.12689888 -0.105959624 0.033518158 0.03837753
0001e0 08 4e f1 3b b7 cc f4 3d ec 78 b3 3e ea 44 e1 bc
       0.0073640384 0.11953109 0.35053194 -0.027498681
0001f0 1a d7 ff bd 12 ba 56 3c 70 ca 14 3f f8 08 03 be
       -0.12492199 0.013105886 0.58121395 -0.1279639

fc3.weight f4 [4, 128]
000000 b7 08 42 be 34 3b 5b be 07 1f 02 3d 23 64 76 be
       -0.18948637 -0.21409303 0.03176787 -0.24061637
000010 af e9 a6 be 96 69 3b 3f b0 b3 00 3f 22 7e 4b bb
       -0.3260016 0.73207986 0.5027418 -0.0031050523
000020 58 03 de 3e 2f e9 b0 be 65 e5 44 be 23 ba 19 bc
       0.43361926 -0.34552905 -0.19228132 -0.009382757
000030 50 4b 90 3d a6 29 88 be 1b 80 3f 3d e4 98 42 3d
       0.07045615 -0.26594275 0.04675303 0.04750909
000040 a6 bc b0 be 19 a6 4a be f5 75 06 3a 34 a0 8d 3f
       -0.34518927 -0.19789924 0.00051292713 1.1064515
000050 de 99 a5 3f dd 9e aa be 36 83 86 3f 04 42 4c 3d
       1.2937582 -0.33324328 1.0508792 0.049867645
000060 61 5f 9c 3f 8c 5a 97 be 73 69 88 be e1 79 07 bf
       1.2216607 -0.2956127 -0.2664295 -0.5292035
000070 a9 f2 0e 3d 55 a0 ab 3f dd de dc 3f 46 fc b2 be
       0.034899388 1.3408304 1.7255512 -0.34958094
000080 a1 4b ca bd c6 38 97 be a6 73 33 bf ea 80 36 bd
       -0.09877706 -0.29535502 -0.7009834 -0.044556536
000090 e2 99 97 be 78 25 d8 be 9e a4 14 bf 10 55 31 bd
       -0.2960959 -0.42216086 -0.58063686 -0.043294013
0000a0 f0 ab 91 3d 8c 5e 41 be 0d 0f a7 be a5 70 6a be
       0.071128726 -0.18883723 -0.3262867 -0.22894533
0000b0 03 76 26 3c 93 e9 37 3f 22 2e 7b 3f ff e4 c0 bd
       0.010159972 0.7184078 0.9811727 -0.094186775
0000c0 9e 48 85 be 87 5a be be 2f 9f f8 be f5 79 4d bf
       -0.26031965 -0.37178442 -0.48558947 -0.80264217
0000d0 9a b7 2b 3f f0 74 60 be 40 d2 ad be fb ca 19 be
       0.6707703 -0.21919608 -0.3394947 -0.15018837
0000e0 f9 5d 95 3f b0 dd 67 be 27 e1 b0 3c 4b 38 dc be
       1.1669303 -0.22643161 0.021591736 -0.43011698
0000f0 60 f4 68 be 93 d9 5f be 01 69 a8 3d 75 2a c2 3e
       -0.22749472 -0.21860342 0.08223153 0.37923017
000100 13 55 8d be 3c d5 9e be 3e 12 96 3f e7 44 ab bd
       -0.2760397 -0.3102206 1.1724317 -0.083627515
000110 7f 13 22 bd de c6 28 be 74 9c 4a be e2 43 89 3d
       -0.039569374 -0.16482112 -0.19786245 0.06702401
000120 0e b3 91 be 3b 25 a2 be ec 29 12 bf c7 0f 1d 3d
       -0.2845692 -0.3166903 -0.5709522 0.038345125
000130 3f 47 95 be 32 e5 4b be df 6a 90 3f a0 83 11 be
       -0.2915592 -0.1991165 1.1282614 -0.14210367
000140 63 b4 2b 3d a8 26 16 bf 99 ee 89 be 66 47 b2 be
       0.041920077 -0.58652735 -0.26939848 -0.34820098
000150 c5 a2 8d be 37 bc 09 3e 94 1c f2 bd 31 13 18 3e
       -0.27663246 0.13450705 -0.11821857 0.14851071
000160 a8 a3 bf be 5e c6 a5 be ea e5 32 3d 18 ab 3f 3e
       -0.37429547 -0.32377905 0.043676294 0.18717611
000170 d3 5e a2 3f 7c d2 17 be 9f 99 aa be 23 73 8a 3e
       1.2685188 -0.14826387 -0.3332033 0.27040967
000180 c0 f0 a9 be 07 fb bf be b3 48 8c be e1 f0 43 be
       -0.3319149 -0.37496206 -0.27399215 -0.19134857
000190 a7 ed 8d bf 7d 9c ed be c2 4b a5 be fc f9 e7 bc
       -1.1088151 -0.46408454 -0.3228436 -0.028317444
0001a0 a6 65 aa be 51 9a 6a 3f c6 70 9b 3f 22 8d 83 be
       -0.33280677 0.9164172 1.2143791 -0.25693613
0001b0 45 c0 e7 3e 7f 27 ab be e9 30 16 bf 93 41 45 be
       0.45263878 -0.3342857 -0.5866838 -0.19263296
0001c0 65 c7 d3 3e f1 93 a9 be ad e6 9b be 59 5c 5e 3d
       0.41363063 -0.33120683 -0.3044943 0.05428729
0001d0 3b a0 09 bf e0 14 84 be d0 ee c2 be 0a ab ec 3c
       -0.5376012 -0.25797176 -0.38072824 0.028890152
0001e0 b5 bf 70 be 79 91 81 be b9 e5 33 be 84 b2 33 bf
       -0.2351063 -0.253063 -0.17568101 -0.7019427
0001f0 92 c9 b1 3d 51 a7 dd 3e c9 64 37 bf 4f 01 0a 3e
       0.086810246 0.43291715 -0.7163816 0.13477062
000200 a4 95 d4 be b6 7e 86 be 6e ed be bc ef 0a a1 be
       -0.41520417 -0.26268548 -0.023306575 -0.31453654
000210 18 1e 8d be 61 8b 2d 3f 75 13 ff 3e 4b 67 59 3d
       -0.27562022 0.677908 0.49819532 0.053077023
000220 c3 4c 48 3f 52 e2 54 be cc bd 0e 3f 43 7b e3 3c
       0.7824213 -0.2078946 0.5575836 0.027768737
000230 47 3c 8a 3d 52 2a 8d be 56 56 fd be b0 d2 db 3e
       0.06749778 -0.2757135 -0.49479932 0.4293418
000240 69 83 8c be a8 40 6b be 48 44 0d 3d 6d fe 5d 3f
       -0.27444008 -0.22973883 0.034488946 0.8671635
000250 9b 2a b2 3f b0 61 a7 be fb 20 4d 3f a5 e5 db 3c
       1.3919252 -0.32691717 0.8012845 0.026842901
000260 8f f2 b0 3f 90 2d d7 be d4 f0 86 be e6 54 0e bf
       1.3824023 -0.4202695 -0.26355612 -0.55598295
000270 7b c4 6c 3d a7 6c b4 3f 94 bf c9 3f da e1 7f be
       0.057804566 1.4095658 1.576159 -0.249885
000280 72 50 b8 3e 65 0a 9b be 86 28 3a bf c7 b0 c2 be
       0.35998875 -0.30281368 -0.72718084 -0.38025495
000290 cf 42 99 be eb 95 0d bf 25 f4 69 3e 5d 89 4e bc
       -0.29933783 -0.5530688 0.2284704 -0.012605992
0002a0 f9 b8 48 bc 7f c4 02 be 3c 95 7e be e6 60 49 be
       -0.012251132 -0.1277027 -0.24861616 -0.1966587
0002b0 8e 8e d2 3b 6a 6e 3a 3f 0f df 6a 3f fb 17 80 3b
       0.0064256852 0.7282473 0.9174661 0.0039091087
0002c0 4b 67 8e be ab 6c b2 be ff 2b a9 be 7b 2a 27 be
       -0.2781318 -0.34848532 -0.3304138 -0.16324799
0002d0 ce 55 c3 bd d5 f8 62 be fd 5d 58 be 39 c3 9d be
       -0.0953785 -0.22165234 -0.21129604 -0.30813006
0002e0 45 2a 4e 3f 84 23 a1 be f0 f8 33 3c e9 38 10 bf
       0.8053325 -0.3147241 0.010984644 -0.5633684
0002f0 ce 5f 9f be db 0e 95 be be f7 79 3d 42 0d 26 be
       -0.3112778 -0.29112896 0.06102728 -0.16215995
000300 94 67 18 be 70 0b 9d be 7f 69 83 3f 66 82 f6 bd
       -0.14883262 -0.3067279 1.026657 -0.1203659
000310 b9 6d 85 3d 20 b3 56 be 44 5e b8 be d2 c1 25 3c
       0.065150686 -0.20966768 -0.3600942 0.010117011
000320 e0 6b 66 be d8 0c 60 be 36 a2 3d bf 4a 4b 7c 3d
       -0.22502089 -0.218799 -0.7407564 0.06159524
000330 bb ca a5 be f1 13 f5 be a7 cb a4 3f 61 46 0b bf
       -0.32381234 -0.47866777 1.287465 -0.54404265
000340 88 98 92 3d 78 79 8c be 04 f4 3c be b3 0e 86 be
       0.07157999 -0.27436423 -0.1845246 -0.2618309
000350 cb c1 3b be 58 87 23 3f 6f fa 41 be 3e 6c 9b bc
       -0.18335645 0.63878393 -0.18943189 -0.018972512
000360 95 a7 85 be eb c5 93 be fa 8a 87 3e 5c 78 4d 3d
       -0.26104417 -0.28861937 0.26473218 0.05016361
000370 b2 81 a1 3f a9 2f 7e be 32 4b a8 be 89 af 9d 3d
       1.2617705 -0.24822868 -0.3286987 0.07699496
000380 fb d3 53 be 9a 22 91 be fd c0 fd be 0b ce fe be
       -0.20686333 -0.2834671 -0.495613 -0.49766573
000390 3b c7 2f bf ec 0a 07 bf 34 ee 8d be 0b 7a 15 3e
       -0.68663377 -0.5275104 -0.27720797 0.14597337
0003a0 d3 38 aa be 7c f6 99 3f 6e 29 76 3f 70 29 21 bf
       -0.33246478 1.2028346 0.96156967 -0.62953854
0003b0 ca 7b 2c 3f e2 4d b0 be 17 18 c8 be 80 c4 7e be
       0.6737639 -0.3443442 -0.3908088 -0.24879646
0003c0 7e ca 13 3f bd 4f b0 be 94 1b a2 be a9 30 b6 bb
       0.57730854 -0.34435835 -0.31661665 -0.00556
0003d0 87 7a be be bf 12 80 be c0 89 78 be 27 36 82 bd
       -0.37202856 -0.25014302 -0.24271297 -0.06357985
0003e0 ef 86 cf be 56 6e 5e be ee dd 22 bf 19 6a a8 be
       -0.40532634 -0.21721777 -0.6361989 -0.32893446
0003f0 08 d6 e1 be 9e 99 2b be ca a3 4d bf 76 83 8d 3e
       -0.44108605 -0.16757819 -0.8032805 0.2763936

fc3.bias f4 [4]
000000 33 45 64 3d 4e b9 39 be a7 cd 0d 3e 72 94 3b be
       0.055730056 -0.18137094 0.13847981 -0.18318346
